{"format": "graph-model", "generatedBy": "2.10.0", "convertedBy": "TensorFlow.js Converter v3.20.0", "signature": {"inputs": {"input_1": {"name": "input_1:0", "dtype": "DT_FLOAT", "tensorShape": {"dim": [{"size": "1"}, {"size": "448"}, {"size": "256"}, {"size": "3"}]}}}, "outputs": {"SegHead_main": {"name": "Identity:0", "dtype": "DT_FLOAT", "tensorShape": {"dim": [{"size": "1"}, {"size": "448"}, {"size": "256"}, {"size": "2"}]}}}}, "modelTopology": {"node": [{"name": "StatefulPartitionedCall/model_1/conv2d_49/Conv2D/ReadVariableOp", "op": "Const", "attr": {"value": {"tensor": {"dtype": "DT_FLOAT", "tensorShape": {"dim": [{"size": "1"}, {"size": "1"}, {"size": "24"}, {"size": "24"}]}}}, "dtype": {"type": "DT_FLOAT"}}}, {"name": "StatefulPartitionedCall/model_1/tf.__operators__.getitem_7/strided_slice/stack", "op": "Const", "attr": {"value": {"tensor": {"dtype": "DT_INT32", "tensorShape": {"dim": [{"size": "4"}]}}}, "dtype": {"type": "DT_INT32"}}}, {"name": "StatefulPartitionedCall/model_1/tf.__operators__.getitem_7/strided_slice/stack_1", "op": "Const", "attr": {"value": {"tensor": {"dtype": "DT_INT32", "tensorShape": {"dim": [{"size": "4"}]}}}, "dtype": {"type": "DT_INT32"}}}, {"name": "StatefulPartitionedCall/model_1/tf.__operators__.getitem_7/strided_slice/stack_2", "op": "Const", "attr": {"dtype": {"type": "DT_INT32"}, "value": {"tensor": {"dtype": "DT_INT32", "tensorShape": {"dim": [{"size": "4"}]}}}}}, {"name": "StatefulPartitionedCall/model_1/reshape/Reshape/shape", "op": "Const", "attr": {"dtype": {"type": "DT_INT32"}, "value": {"tensor": {"dtype": "DT_INT32", "tensorShape": {"dim": [{"size": "4"}]}}}}}, {"name": "StatefulPartitionedCall/model_1/concatanate/concat/axis", "op": "Const", "attr": {"dtype": {"type": "DT_INT32"}, "value": {"tensor": {"dtype": "DT_INT32", "tensorShape": {}}}}}, {"name": "StatefulPartitionedCall/model_1/conv2d_47/Conv2D/ReadVariableOp", "op": "Const", "attr": {"dtype": {"type": "DT_FLOAT"}, "value": {"tensor": {"dtype": "DT_FLOAT", "tensorShape": {"dim": [{"size": "1"}, {"size": "1"}, {"size": "24"}, {"size": "24"}]}}}}}, {"name": "StatefulPartitionedCall/model_1/conv2d_48/Conv2D/ReadVariableOp", "op": "Const", "attr": {"dtype": {"type": "DT_FLOAT"}, "value": {"tensor": {"dtype": "DT_FLOAT", "tensorShape": {"dim": [{"size": "1"}, {"size": "1"}, {"size": "24"}, {"size": "24"}]}}}}}, {"name": "StatefulPartitionedCall/model_1/tf.__operators__.getitem_6/strided_slice/stack", "op": "Const", "attr": {"value": {"tensor": {"dtype": "DT_INT32", "tensorShape": {"dim": [{"size": "4"}]}}}, "dtype": {"type": "DT_INT32"}}}, {"name": "StatefulPartitionedCall/model_1/tf.__operators__.getitem_6/strided_slice/stack_1", "op": "Const", "attr": {"dtype": {"type": "DT_INT32"}, "value": {"tensor": {"dtype": "DT_INT32", "tensorShape": {"dim": [{"size": "4"}]}}}}}, {"name": "StatefulPartitionedCall/model_1/tf.__operators__.getitem_6/strided_slice/stack_2", "op": "Const", "attr": {"dtype": {"type": "DT_INT32"}, "value": {"tensor": {"dtype": "DT_INT32", "tensorShape": {"dim": [{"size": "4"}]}}}}}, {"name": "StatefulPartitionedCall/model_1/reshape_1/Reshape/shape", "op": "Const", "attr": {"value": {"tensor": {"dtype": "DT_INT32", "tensorShape": {"dim": [{"size": "4"}]}}}, "dtype": {"type": "DT_INT32"}}}, {"name": "StatefulPartitionedCall/model_1/up_sampling2d/mul", "op": "Const", "attr": {"value": {"tensor": {"dtype": "DT_INT32", "tensorShape": {"dim": [{"size": "2"}]}}}, "dtype": {"type": "DT_INT32"}}}, {"name": "unknown_182", "op": "Const", "attr": {"value": {"tensor": {"dtype": "DT_FLOAT", "tensorShape": {}}}, "dtype": {"type": "DT_FLOAT"}}}, {"name": "unknown_137", "op": "Const", "attr": {"dtype": {"type": "DT_FLOAT"}, "value": {"tensor": {"dtype": "DT_FLOAT", "tensorShape": {"dim": [{"size": "3"}, {"size": "3"}, {"size": "1"}, {"size": "1"}]}}}}}, {"name": "unknown_130", "op": "Const", "attr": {"value": {"tensor": {"dtype": "DT_FLOAT", "tensorShape": {}}}, "dtype": {"type": "DT_FLOAT"}}}, {"name": "StatefulPartitionedCall/model_1/tf.__operators__.getitem/strided_slice/stack", "op": "Const", "attr": {"dtype": {"type": "DT_INT32"}, "value": {"tensor": {"dtype": "DT_INT32", "tensorShape": {"dim": [{"size": "4"}]}}}}}, {"name": "StatefulPartitionedCall/model_1/tf.__operators__.getitem/strided_slice/stack_1", "op": "Const", "attr": {"dtype": {"type": "DT_INT32"}, "value": {"tensor": {"dtype": "DT_INT32", "tensorShape": {"dim": [{"size": "4"}]}}}}}, {"name": "StatefulPartitionedCall/model_1/tf.__operators__.getitem/strided_slice/stack_2", "op": "Const", "attr": {"dtype": {"type": "DT_INT32"}, "value": {"tensor": {"dtype": "DT_INT32", "tensorShape": {"dim": [{"size": "4"}]}}}}}, {"name": "unknown_131", "op": "Const", "attr": {"dtype": {"type": "DT_FLOAT"}, "value": {"tensor": {"dtype": "DT_FLOAT", "tensorShape": {}}}}}, {"name": "StatefulPartitionedCall/model_1/tf.__operators__.getitem_1/strided_slice/stack", "op": "Const", "attr": {"value": {"tensor": {"dtype": "DT_INT32", "tensorShape": {"dim": [{"size": "4"}]}}}, "dtype": {"type": "DT_INT32"}}}, {"name": "StatefulPartitionedCall/model_1/tf.__operators__.getitem_1/strided_slice/stack_1", "op": "Const", "attr": {"dtype": {"type": "DT_INT32"}, "value": {"tensor": {"dtype": "DT_INT32", "tensorShape": {"dim": [{"size": "4"}]}}}}}, {"name": "StatefulPartitionedCall/model_1/tf.__operators__.getitem_1/strided_slice/stack_2", "op": "Const", "attr": {"dtype": {"type": "DT_INT32"}, "value": {"tensor": {"dtype": "DT_INT32", "tensorShape": {"dim": [{"size": "4"}]}}}}}, {"name": "unknown_133", "op": "Const", "attr": {"dtype": {"type": "DT_FLOAT"}, "value": {"tensor": {"dtype": "DT_FLOAT", "tensorShape": {}}}}}, {"name": "StatefulPartitionedCall/model_1/resizing/resize/size", "op": "Const", "attr": {"value": {"tensor": {"dtype": "DT_INT32", "tensorShape": {"dim": [{"size": "2"}]}}}, "dtype": {"type": "DT_INT32"}}}, {"name": "StatefulPartitionedCall/model_1/tf.__operators__.getitem_2/strided_slice/stack", "op": "Const", "attr": {"dtype": {"type": "DT_INT32"}, "value": {"tensor": {"dtype": "DT_INT32", "tensorShape": {"dim": [{"size": "4"}]}}}}}, {"name": "StatefulPartitionedCall/model_1/tf.__operators__.getitem_2/strided_slice/stack_1", "op": "Const", "attr": {"dtype": {"type": "DT_INT32"}, "value": {"tensor": {"dtype": "DT_INT32", "tensorShape": {"dim": [{"size": "4"}]}}}}}, {"name": "StatefulPartitionedCall/model_1/tf.__operators__.getitem_2/strided_slice/stack_2", "op": "Const", "attr": {"value": {"tensor": {"dtype": "DT_INT32", "tensorShape": {"dim": [{"size": "4"}]}}}, "dtype": {"type": "DT_INT32"}}}, {"name": "unknown_136", "op": "Const", "attr": {"value": {"tensor": {"dtype": "DT_FLOAT", "tensorShape": {"dim": [{"size": "3"}, {"size": "3"}, {"size": "1"}, {"size": "1"}]}}}, "dtype": {"type": "DT_FLOAT"}}}, {"name": "StatefulPartitionedCall/model_1/tf.math.truediv/truediv", "op": "Const", "attr": {"dtype": {"type": "DT_FLOAT"}, "value": {"tensor": {"dtype": "DT_FLOAT", "tensorShape": {}}}}}, {"name": "StatefulPartitionedCall/model_1/tf.math.greater/Greater/y", "op": "Const", "attr": {"dtype": {"type": "DT_FLOAT"}, "value": {"tensor": {"dtype": "DT_FLOAT", "tensorShape": {}}}}}, {"name": "StatefulPartitionedCall/model_1/tf.concat/concat/axis", "op": "Const", "attr": {"value": {"tensor": {"dtype": "DT_INT32", "tensorShape": {}}}, "dtype": {"type": "DT_INT32"}}}, {"name": "StatefulPartitionedCall/model_1/concatenate_6/concat/axis", "op": "Const", "attr": {"value": {"tensor": {"dtype": "DT_INT32", "tensorShape": {}}}, "dtype": {"type": "DT_INT32"}}}, {"name": "StatefulPartitionedCall/model_1/conv2d_37/Conv2D/ReadVariableOp", "op": "Const", "attr": {"value": {"tensor": {"dtype": "DT_FLOAT", "tensorShape": {"dim": [{"size": "3"}, {"size": "3"}, {"size": "4"}, {"size": "2"}]}}}, "dtype": {"type": "DT_FLOAT"}}}, {"name": "StatefulPartitionedCall/model_1/conv2d_37/BiasAdd/ReadVariableOp", "op": "Const", "attr": {"value": {"tensor": {"dtype": "DT_FLOAT", "tensorShape": {"dim": [{"size": "2"}]}}}, "dtype": {"type": "DT_FLOAT"}}}, {"name": "StatefulPartitionedCall/model_1/conv2d_38/Conv2D/ReadVariableOp", "op": "Const", "attr": {"dtype": {"type": "DT_FLOAT"}, "value": {"tensor": {"dtype": "DT_FLOAT", "tensorShape": {"dim": [{"size": "3"}, {"size": "3"}, {"size": "2"}, {"size": "2"}]}}}}}, {"name": "StatefulPartitionedCall/model_1/conv2d_38/BiasAdd/ReadVariableOp", "op": "Const", "attr": {"value": {"tensor": {"dtype": "DT_FLOAT", "tensorShape": {"dim": [{"size": "2"}]}}}, "dtype": {"type": "DT_FLOAT"}}}, {"name": "StatefulPartitionedCall/model_1/conv2d_39/Conv2D/ReadVariableOp", "op": "Const", "attr": {"dtype": {"type": "DT_FLOAT"}, "value": {"tensor": {"dtype": "DT_FLOAT", "tensorShape": {"dim": [{"size": "3"}, {"size": "3"}, {"size": "2"}, {"size": "2"}]}}}}}, {"name": "StatefulPartitionedCall/model_1/conv2d_39/BiasAdd/ReadVariableOp", "op": "Const", "attr": {"dtype": {"type": "DT_FLOAT"}, "value": {"tensor": {"dtype": "DT_FLOAT", "tensorShape": {"dim": [{"size": "2"}]}}}}}, {"name": "StatefulPartitionedCall/model_1/resizing_2/resize/size", "op": "Const", "attr": {"dtype": {"type": "DT_INT32"}, "value": {"tensor": {"dtype": "DT_INT32", "tensorShape": {"dim": [{"size": "2"}]}}}}}, {"name": "unknown_144", "op": "Const", "attr": {"dtype": {"type": "DT_FLOAT"}, "value": {"tensor": {"dtype": "DT_FLOAT", "tensorShape": {}}}}}, {"name": "unknown_105", "op": "Const", "attr": {"value": {"tensor": {"dtype": "DT_FLOAT", "tensorShape": {"dim": [{"size": "3"}, {"size": "3"}, {"size": "1"}, {"size": "1"}]}}}, "dtype": {"type": "DT_FLOAT"}}}, {"name": "unknown_95", "op": "Const", "attr": {"dtype": {"type": "DT_FLOAT"}, "value": {"tensor": {"dtype": "DT_FLOAT", "tensorShape": {}}}}}, {"name": "StatefulPartitionedCall/model_1/tf.__operators__.getitem_3/strided_slice/stack", "op": "Const", "attr": {"value": {"tensor": {"dtype": "DT_INT32", "tensorShape": {"dim": [{"size": "4"}]}}}, "dtype": {"type": "DT_INT32"}}}, {"name": "StatefulPartitionedCall/model_1/tf.__operators__.getitem_3/strided_slice/stack_1", "op": "Const", "attr": {"dtype": {"type": "DT_INT32"}, "value": {"tensor": {"dtype": "DT_INT32", "tensorShape": {"dim": [{"size": "4"}]}}}}}, {"name": "StatefulPartitionedCall/model_1/tf.__operators__.getitem_3/strided_slice/stack_2", "op": "Const", "attr": {"value": {"tensor": {"dtype": "DT_INT32", "tensorShape": {"dim": [{"size": "4"}]}}}, "dtype": {"type": "DT_INT32"}}}, {"name": "unknown_96", "op": "Const", "attr": {"dtype": {"type": "DT_FLOAT"}, "value": {"tensor": {"dtype": "DT_FLOAT", "tensorShape": {}}}}}, {"name": "StatefulPartitionedCall/model_1/tf.__operators__.getitem_4/strided_slice/stack", "op": "Const", "attr": {"value": {"tensor": {"dtype": "DT_INT32", "tensorShape": {"dim": [{"size": "4"}]}}}, "dtype": {"type": "DT_INT32"}}}, {"name": "StatefulPartitionedCall/model_1/tf.__operators__.getitem_4/strided_slice/stack_1", "op": "Const", "attr": {"value": {"tensor": {"dtype": "DT_INT32", "tensorShape": {"dim": [{"size": "4"}]}}}, "dtype": {"type": "DT_INT32"}}}, {"name": "StatefulPartitionedCall/model_1/tf.__operators__.getitem_4/strided_slice/stack_2", "op": "Const", "attr": {"dtype": {"type": "DT_INT32"}, "value": {"tensor": {"dtype": "DT_INT32", "tensorShape": {"dim": [{"size": "4"}]}}}}}, {"name": "unknown_99", "op": "Const", "attr": {"value": {"tensor": {"dtype": "DT_FLOAT", "tensorShape": {}}}, "dtype": {"type": "DT_FLOAT"}}}, {"name": "StatefulPartitionedCall/model_1/resizing_1/resize/size", "op": "Const", "attr": {"dtype": {"type": "DT_INT32"}, "value": {"tensor": {"dtype": "DT_INT32", "tensorShape": {"dim": [{"size": "2"}]}}}}}, {"name": "StatefulPartitionedCall/model_1/tf.__operators__.getitem_5/strided_slice/stack", "op": "Const", "attr": {"value": {"tensor": {"dtype": "DT_INT32", "tensorShape": {"dim": [{"size": "4"}]}}}, "dtype": {"type": "DT_INT32"}}}, {"name": "StatefulPartitionedCall/model_1/tf.__operators__.getitem_5/strided_slice/stack_1", "op": "Const", "attr": {"dtype": {"type": "DT_INT32"}, "value": {"tensor": {"dtype": "DT_INT32", "tensorShape": {"dim": [{"size": "4"}]}}}}}, {"name": "StatefulPartitionedCall/model_1/tf.__operators__.getitem_5/strided_slice/stack_2", "op": "Const", "attr": {"dtype": {"type": "DT_INT32"}, "value": {"tensor": {"dtype": "DT_INT32", "tensorShape": {"dim": [{"size": "4"}]}}}}}, {"name": "unknown_104", "op": "Const", "attr": {"value": {"tensor": {"dtype": "DT_FLOAT", "tensorShape": {"dim": [{"size": "3"}, {"size": "3"}, {"size": "1"}, {"size": "1"}]}}}, "dtype": {"type": "DT_FLOAT"}}}, {"name": "StatefulPartitionedCall/model_1/tf.math.truediv_1/truediv", "op": "Const", "attr": {"value": {"tensor": {"dtype": "DT_FLOAT", "tensorShape": {}}}, "dtype": {"type": "DT_FLOAT"}}}, {"name": "StatefulPartitionedCall/model_1/tf.math.greater_1/Greater/y", "op": "Const", "attr": {"dtype": {"type": "DT_FLOAT"}, "value": {"tensor": {"dtype": "DT_FLOAT", "tensorShape": {}}}}}, {"name": "StatefulPartitionedCall/model_1/tf.concat_1/concat/axis", "op": "Const", "attr": {"dtype": {"type": "DT_INT32"}, "value": {"tensor": {"dtype": "DT_INT32", "tensorShape": {}}}}}, {"name": "StatefulPartitionedCall/model_1/conv2d_33/Conv2D/ReadVariableOp", "op": "Const", "attr": {"value": {"tensor": {"dtype": "DT_FLOAT", "tensorShape": {"dim": [{"size": "3"}, {"size": "3"}, {"size": "2"}, {"size": "2"}]}}}, "dtype": {"type": "DT_FLOAT"}}}, {"name": "StatefulPartitionedCall/model_1/conv2d_33/BiasAdd/ReadVariableOp", "op": "Const", "attr": {"value": {"tensor": {"dtype": "DT_FLOAT", "tensorShape": {"dim": [{"size": "2"}]}}}, "dtype": {"type": "DT_FLOAT"}}}, {"name": "StatefulPartitionedCall/model_1/conv2d_34/Conv2D/ReadVariableOp", "op": "Const", "attr": {"dtype": {"type": "DT_FLOAT"}, "value": {"tensor": {"dtype": "DT_FLOAT", "tensorShape": {"dim": [{"size": "3"}, {"size": "3"}, {"size": "2"}, {"size": "2"}]}}}}}, {"name": "StatefulPartitionedCall/model_1/conv2d_34/BiasAdd/ReadVariableOp", "op": "Const", "attr": {"dtype": {"type": "DT_FLOAT"}, "value": {"tensor": {"dtype": "DT_FLOAT", "tensorShape": {"dim": [{"size": "2"}]}}}}}, {"name": "StatefulPartitionedCall/model_1/conv2d_35/Conv2D/ReadVariableOp", "op": "Const", "attr": {"dtype": {"type": "DT_FLOAT"}, "value": {"tensor": {"dtype": "DT_FLOAT", "tensorShape": {"dim": [{"size": "3"}, {"size": "3"}, {"size": "2"}, {"size": "2"}]}}}}}, {"name": "StatefulPartitionedCall/model_1/conv2d_35/BiasAdd/ReadVariableOp", "op": "Const", "attr": {"value": {"tensor": {"dtype": "DT_FLOAT", "tensorShape": {"dim": [{"size": "2"}]}}}, "dtype": {"type": "DT_FLOAT"}}}, {"name": "StatefulPartitionedCall/model_1/conv2d_36/Conv2D/ReadVariableOp", "op": "Const", "attr": {"value": {"tensor": {"dtype": "DT_FLOAT", "tensorShape": {"dim": [{"size": "3"}, {"size": "3"}, {"size": "2"}, {"size": "2"}]}}}, "dtype": {"type": "DT_FLOAT"}}}, {"name": "StatefulPartitionedCall/model_1/conv2d_36/BiasAdd/ReadVariableOp", "op": "Const", "attr": {"dtype": {"type": "DT_FLOAT"}, "value": {"tensor": {"dtype": "DT_FLOAT", "tensorShape": {"dim": [{"size": "2"}]}}}}}, {"name": "StatefulPartitionedCall/model_1/concatenate_8/concat/axis", "op": "Const", "attr": {"dtype": {"type": "DT_INT32"}, "value": {"tensor": {"dtype": "DT_INT32", "tensorShape": {}}}}}, {"name": "StatefulPartitionedCall/model_1/up_sampling2d_1/mul", "op": "Const", "attr": {"dtype": {"type": "DT_INT32"}, "value": {"tensor": {"dtype": "DT_INT32", "tensorShape": {"dim": [{"size": "2"}]}}}}}, {"name": "StatefulPartitionedCall/model_1/concatenate/concat/axis", "op": "Const", "attr": {"dtype": {"type": "DT_INT32"}, "value": {"tensor": {"dtype": "DT_INT32", "tensorShape": {}}}}}, {"name": "StatefulPartitionedCall/model_1/concatenate_1/concat/axis", "op": "Const", "attr": {"value": {"tensor": {"dtype": "DT_INT32", "tensorShape": {}}}, "dtype": {"type": "DT_INT32"}}}, {"name": "StatefulPartitionedCall/model_1/concatenate_2/concat/axis", "op": "Const", "attr": {"dtype": {"type": "DT_INT32"}, "value": {"tensor": {"dtype": "DT_INT32", "tensorShape": {}}}}}, {"name": "StatefulPartitionedCall/model_1/concatenate_3/concat/axis", "op": "Const", "attr": {"value": {"tensor": {"dtype": "DT_INT32", "tensorShape": {}}}, "dtype": {"type": "DT_INT32"}}}, {"name": "StatefulPartitionedCall/model_1/concatenate_4/concat/axis", "op": "Const", "attr": {"dtype": {"type": "DT_INT32"}, "value": {"tensor": {"dtype": "DT_INT32", "tensorShape": {}}}}}, {"name": "StatefulPartitionedCall/model_1/concatenate_5/concat/axis", "op": "Const", "attr": {"value": {"tensor": {"dtype": "DT_INT32", "tensorShape": {}}}, "dtype": {"type": "DT_INT32"}}}, {"name": "StatefulPartitionedCall/model_1/up_sampling2d_2/mul", "op": "Const", "attr": {"value": {"tensor": {"dtype": "DT_INT32", "tensorShape": {"dim": [{"size": "2"}]}}}, "dtype": {"type": "DT_INT32"}}}, {"name": "StatefulPartitionedCall/model_1/concatenate_10/concat/axis", "op": "Const", "attr": {"value": {"tensor": {"dtype": "DT_INT32", "tensorShape": {}}}, "dtype": {"type": "DT_INT32"}}}, {"name": "StatefulPartitionedCall/model_1/up_sampling2d_3/mul", "op": "Const", "attr": {"dtype": {"type": "DT_INT32"}, "value": {"tensor": {"dtype": "DT_INT32", "tensorShape": {"dim": [{"size": "2"}]}}}}}, {"name": "input_1", "op": "Placeholder", "attr": {"shape": {"shape": {"dim": [{"size": "1"}, {"size": "448"}, {"size": "256"}, {"size": "3"}]}}, "dtype": {"type": "DT_FLOAT"}}}, {"name": "StatefulPartitionedCall/model_1/conv2d_26/Conv2D_bn_offset", "op": "Const", "attr": {"value": {"tensor": {"dtype": "DT_FLOAT", "tensorShape": {"dim": [{"size": "192"}]}}}, "dtype": {"type": "DT_FLOAT"}}}, {"name": "StatefulPartitionedCall/model_1/conv2d_28/Conv2D_weights", "op": "Const", "attr": {"dtype": {"type": "DT_FLOAT"}, "value": {"tensor": {"dtype": "DT_FLOAT", "tensorShape": {"dim": [{"size": "3"}, {"size": "3"}, {"size": "192"}, {"size": "48"}]}}}}}, {"name": "StatefulPartitionedCall/model_1/conv2d_28/Conv2D_bn_offset", "op": "Const", "attr": {"value": {"tensor": {"dtype": "DT_FLOAT", "tensorShape": {"dim": [{"size": "48"}]}}}, "dtype": {"type": "DT_FLOAT"}}}, {"name": "StatefulPartitionedCall/model_1/conv2d/Conv2D_weights", "op": "Const", "attr": {"dtype": {"type": "DT_FLOAT"}, "value": {"tensor": {"dtype": "DT_FLOAT", "tensorShape": {"dim": [{"size": "7"}, {"size": "7"}, {"size": "3"}, {"size": "24"}]}}}}}, {"name": "StatefulPartitionedCall/model_1/conv2d/Conv2D_bn_offset", "op": "Const", "attr": {"dtype": {"type": "DT_FLOAT"}, "value": {"tensor": {"dtype": "DT_FLOAT", "tensorShape": {"dim": [{"size": "24"}]}}}}}, {"name": "StatefulPartitionedCall/model_1/conv2d_29/Conv2D_weights", "op": "Const", "attr": {"dtype": {"type": "DT_FLOAT"}, "value": {"tensor": {"dtype": "DT_FLOAT", "tensorShape": {"dim": [{"size": "3"}, {"size": "3"}, {"size": "192"}, {"size": "24"}]}}}}}, {"name": "StatefulPartitionedCall/model_1/conv2d_1/Conv2D_weights", "op": "Const", "attr": {"value": {"tensor": {"dtype": "DT_FLOAT", "tensorShape": {"dim": [{"size": "3"}, {"size": "3"}, {"size": "24"}, {"size": "48"}]}}}, "dtype": {"type": "DT_FLOAT"}}}, {"name": "StatefulPartitionedCall/model_1/conv2d_1/Conv2D_bn_offset", "op": "Const", "attr": {"value": {"tensor": {"dtype": "DT_FLOAT", "tensorShape": {"dim": [{"size": "48"}]}}}, "dtype": {"type": "DT_FLOAT"}}}, {"name": "StatefulPartitionedCall/model_1/conv2d_29/Conv2D_bn_offset", "op": "Const", "attr": {"value": {"tensor": {"dtype": "DT_FLOAT", "tensorShape": {"dim": [{"size": "24"}]}}}, "dtype": {"type": "DT_FLOAT"}}}, {"name": "StatefulPartitionedCall/model_1/conv2d_3/Conv2D_weights", "op": "Const", "attr": {"dtype": {"type": "DT_FLOAT"}, "value": {"tensor": {"dtype": "DT_FLOAT", "tensorShape": {"dim": [{"size": "3"}, {"size": "3"}, {"size": "48"}, {"size": "24"}]}}}}}, {"name": "StatefulPartitionedCall/model_1/conv2d_3/Conv2D_bn_offset", "op": "Const", "attr": {"dtype": {"type": "DT_FLOAT"}, "value": {"tensor": {"dtype": "DT_FLOAT", "tensorShape": {"dim": [{"size": "24"}]}}}}}, {"name": "StatefulPartitionedCall/model_1/conv2d_4/Conv2D_weights", "op": "Const", "attr": {"value": {"tensor": {"dtype": "DT_FLOAT", "tensorShape": {"dim": [{"size": "3"}, {"size": "3"}, {"size": "48"}, {"size": "12"}]}}}, "dtype": {"type": "DT_FLOAT"}}}, {"name": "StatefulPartitionedCall/model_1/conv2d_30/Conv2D_weights", "op": "Const", "attr": {"dtype": {"type": "DT_FLOAT"}, "value": {"tensor": {"dtype": "DT_FLOAT", "tensorShape": {"dim": [{"size": "3"}, {"size": "3"}, {"size": "192"}, {"size": "24"}]}}}}}, {"name": "StatefulPartitionedCall/model_1/conv2d_4/Conv2D_bn_offset", "op": "Const", "attr": {"dtype": {"type": "DT_FLOAT"}, "value": {"tensor": {"dtype": "DT_FLOAT", "tensorShape": {"dim": [{"size": "12"}]}}}}}, {"name": "StatefulPartitionedCall/model_1/conv2d_5/Conv2D_weights", "op": "Const", "attr": {"dtype": {"type": "DT_FLOAT"}, "value": {"tensor": {"dtype": "DT_FLOAT", "tensorShape": {"dim": [{"size": "3"}, {"size": "3"}, {"size": "48"}, {"size": "12"}]}}}}}, {"name": "StatefulPartitionedCall/model_1/conv2d_30/Conv2D_bn_offset", "op": "Const", "attr": {"dtype": {"type": "DT_FLOAT"}, "value": {"tensor": {"dtype": "DT_FLOAT", "tensorShape": {"dim": [{"size": "24"}]}}}}}, {"name": "StatefulPartitionedCall/model_1/conv2d_5/Conv2D_bn_offset", "op": "Const", "attr": {"dtype": {"type": "DT_FLOAT"}, "value": {"tensor": {"dtype": "DT_FLOAT", "tensorShape": {"dim": [{"size": "12"}]}}}}}, {"name": "StatefulPartitionedCall/model_1/conv2d_2/Conv2D_weights", "op": "Const", "attr": {"value": {"tensor": {"dtype": "DT_FLOAT", "tensorShape": {"dim": [{"size": "1"}, {"size": "1"}, {"size": "48"}, {"size": "48"}]}}}, "dtype": {"type": "DT_FLOAT"}}}, {"name": "StatefulPartitionedCall/model_1/conv2d_2/Conv2D_bn_offset", "op": "Const", "attr": {"dtype": {"type": "DT_FLOAT"}, "value": {"tensor": {"dtype": "DT_FLOAT", "tensorShape": {"dim": [{"size": "48"}]}}}}}, {"name": "StatefulPartitionedCall/model_1/conv2d_27/Conv2D_weights", "op": "Const", "attr": {"value": {"tensor": {"dtype": "DT_FLOAT", "tensorShape": {"dim": [{"size": "1"}, {"size": "1"}, {"size": "192"}, {"size": "96"}]}}}, "dtype": {"type": "DT_FLOAT"}}}, {"name": "StatefulPartitionedCall/model_1/conv2d_6/Conv2D_weights", "op": "Const", "attr": {"value": {"tensor": {"dtype": "DT_FLOAT", "tensorShape": {"dim": [{"size": "1"}, {"size": "1"}, {"size": "96"}, {"size": "96"}]}}}, "dtype": {"type": "DT_FLOAT"}}}, {"name": "StatefulPartitionedCall/model_1/conv2d_6/Conv2D_bn_offset", "op": "Const", "attr": {"dtype": {"type": "DT_FLOAT"}, "value": {"tensor": {"dtype": "DT_FLOAT", "tensorShape": {"dim": [{"size": "96"}]}}}}}, {"name": "StatefulPartitionedCall/model_1/conv2d_27/Conv2D_bn_offset", "op": "Const", "attr": {"dtype": {"type": "DT_FLOAT"}, "value": {"tensor": {"dtype": "DT_FLOAT", "tensorShape": {"dim": [{"size": "96"}]}}}}}, {"name": "StatefulPartitionedCall/model_1/conv2d_8/Conv2D_weights", "op": "Const", "attr": {"dtype": {"type": "DT_FLOAT"}, "value": {"tensor": {"dtype": "DT_FLOAT", "tensorShape": {"dim": [{"size": "3"}, {"size": "3"}, {"size": "96"}, {"size": "24"}]}}}}}, {"name": "StatefulPartitionedCall/model_1/conv2d_50/Conv2D_weights", "op": "Const", "attr": {"dtype": {"type": "DT_FLOAT"}, "value": {"tensor": {"dtype": "DT_FLOAT", "tensorShape": {"dim": [{"size": "3"}, {"size": "3"}, {"size": "24"}, {"size": "192"}]}}}}}, {"name": "StatefulPartitionedCall/model_1/conv2d_8/Conv2D_bn_offset", "op": "Const", "attr": {"value": {"tensor": {"dtype": "DT_FLOAT", "tensorShape": {"dim": [{"size": "24"}]}}}, "dtype": {"type": "DT_FLOAT"}}}, {"name": "StatefulPartitionedCall/model_1/conv2d_9/Conv2D_weights", "op": "Const", "attr": {"value": {"tensor": {"dtype": "DT_FLOAT", "tensorShape": {"dim": [{"size": "3"}, {"size": "3"}, {"size": "96"}, {"size": "12"}]}}}, "dtype": {"type": "DT_FLOAT"}}}, {"name": "StatefulPartitionedCall/model_1/conv2d_9/Conv2D_bn_offset", "op": "Const", "attr": {"dtype": {"type": "DT_FLOAT"}, "value": {"tensor": {"dtype": "DT_FLOAT", "tensorShape": {"dim": [{"size": "12"}]}}}}}, {"name": "StatefulPartitionedCall/model_1/conv2d_10/Conv2D_weights", "op": "Const", "attr": {"dtype": {"type": "DT_FLOAT"}, "value": {"tensor": {"dtype": "DT_FLOAT", "tensorShape": {"dim": [{"size": "3"}, {"size": "3"}, {"size": "96"}, {"size": "12"}]}}}}}, {"name": "StatefulPartitionedCall/model_1/conv2d_31/Conv2D_weights", "op": "Const", "attr": {"value": {"tensor": {"dtype": "DT_FLOAT", "tensorShape": {"dim": [{"size": "1"}, {"size": "1"}, {"size": "192"}, {"size": "192"}]}}}, "dtype": {"type": "DT_FLOAT"}}}, {"name": "StatefulPartitionedCall/model_1/conv2d_10/Conv2D_bn_offset", "op": "Const", "attr": {"dtype": {"type": "DT_FLOAT"}, "value": {"tensor": {"dtype": "DT_FLOAT", "tensorShape": {"dim": [{"size": "12"}]}}}}}, {"name": "StatefulPartitionedCall/model_1/conv2d_7/Conv2D_weights", "op": "Const", "attr": {"value": {"tensor": {"dtype": "DT_FLOAT", "tensorShape": {"dim": [{"size": "1"}, {"size": "1"}, {"size": "96"}, {"size": "48"}]}}}, "dtype": {"type": "DT_FLOAT"}}}, {"name": "StatefulPartitionedCall/model_1/conv2d_31/Conv2D_bn_offset", "op": "Const", "attr": {"dtype": {"type": "DT_FLOAT"}, "value": {"tensor": {"dtype": "DT_FLOAT", "tensorShape": {"dim": [{"size": "192"}]}}}}}, {"name": "StatefulPartitionedCall/model_1/conv2d_7/Conv2D_bn_offset", "op": "Const", "attr": {"value": {"tensor": {"dtype": "DT_FLOAT", "tensorShape": {"dim": [{"size": "48"}]}}}, "dtype": {"type": "DT_FLOAT"}}}, {"name": "StatefulPartitionedCall/model_1/conv2d_50/Conv2D_bn_offset", "op": "Const", "attr": {"value": {"tensor": {"dtype": "DT_FLOAT", "tensorShape": {"dim": [{"size": "192"}]}}}, "dtype": {"type": "DT_FLOAT"}}}, {"name": "StatefulPartitionedCall/model_1/conv2d_11/Conv2D_weights", "op": "Const", "attr": {"dtype": {"type": "DT_FLOAT"}, "value": {"tensor": {"dtype": "DT_FLOAT", "tensorShape": {"dim": [{"size": "1"}, {"size": "1"}, {"size": "96"}, {"size": "96"}]}}}}}, {"name": "StatefulPartitionedCall/model_1/conv2d_11/Conv2D_bn_offset", "op": "Const", "attr": {"value": {"tensor": {"dtype": "DT_FLOAT", "tensorShape": {"dim": [{"size": "96"}]}}}, "dtype": {"type": "DT_FLOAT"}}}, {"name": "StatefulPartitionedCall/model_1/conv2d_43/Conv2D_weights", "op": "Const", "attr": {"dtype": {"type": "DT_FLOAT"}, "value": {"tensor": {"dtype": "DT_FLOAT", "tensorShape": {"dim": [{"size": "3"}, {"size": "3"}, {"size": "192"}, {"size": "384"}]}}}}}, {"name": "StatefulPartitionedCall/model_1/conv2d_13/Conv2D_weights", "op": "Const", "attr": {"dtype": {"type": "DT_FLOAT"}, "value": {"tensor": {"dtype": "DT_FLOAT", "tensorShape": {"dim": [{"size": "3"}, {"size": "3"}, {"size": "96"}, {"size": "48"}]}}}}}, {"name": "StatefulPartitionedCall/model_1/conv2d_13/Conv2D_bn_offset", "op": "Const", "attr": {"value": {"tensor": {"dtype": "DT_FLOAT", "tensorShape": {"dim": [{"size": "48"}]}}}, "dtype": {"type": "DT_FLOAT"}}}, {"name": "StatefulPartitionedCall/model_1/conv2d_43/Conv2D_bn_offset", "op": "Const", "attr": {"value": {"tensor": {"dtype": "DT_FLOAT", "tensorShape": {"dim": [{"size": "384"}]}}}, "dtype": {"type": "DT_FLOAT"}}}, {"name": "StatefulPartitionedCall/model_1/conv2d_14/Conv2D_weights", "op": "Const", "attr": {"dtype": {"type": "DT_FLOAT"}, "value": {"tensor": {"dtype": "DT_FLOAT", "tensorShape": {"dim": [{"size": "3"}, {"size": "3"}, {"size": "96"}, {"size": "24"}]}}}}}, {"name": "StatefulPartitionedCall/model_1/conv2d_14/Conv2D_bn_offset", "op": "Const", "attr": {"dtype": {"type": "DT_FLOAT"}, "value": {"tensor": {"dtype": "DT_FLOAT", "tensorShape": {"dim": [{"size": "24"}]}}}}}, {"name": "StatefulPartitionedCall/model_1/conv2d_15/Conv2D_weights", "op": "Const", "attr": {"dtype": {"type": "DT_FLOAT"}, "value": {"tensor": {"dtype": "DT_FLOAT", "tensorShape": {"dim": [{"size": "3"}, {"size": "3"}, {"size": "96"}, {"size": "24"}]}}}}}, {"name": "StatefulPartitionedCall/model_1/conv2d_15/Conv2D_bn_offset", "op": "Const", "attr": {"dtype": {"type": "DT_FLOAT"}, "value": {"tensor": {"dtype": "DT_FLOAT", "tensorShape": {"dim": [{"size": "24"}]}}}}}, {"name": "StatefulPartitionedCall/model_1/conv2d_12/Conv2D_weights", "op": "Const", "attr": {"value": {"tensor": {"dtype": "DT_FLOAT", "tensorShape": {"dim": [{"size": "1"}, {"size": "1"}, {"size": "96"}, {"size": "96"}]}}}, "dtype": {"type": "DT_FLOAT"}}}, {"name": "StatefulPartitionedCall/model_1/conv2d_44/Conv2D_weights", "op": "Const", "attr": {"dtype": {"type": "DT_FLOAT"}, "value": {"tensor": {"dtype": "DT_FLOAT", "tensorShape": {"dim": [{"size": "1"}, {"size": "1"}, {"size": "384"}, {"size": "384"}]}}}}}, {"name": "StatefulPartitionedCall/model_1/conv2d_12/Conv2D_bn_offset", "op": "Const", "attr": {"value": {"tensor": {"dtype": "DT_FLOAT", "tensorShape": {"dim": [{"size": "96"}]}}}, "dtype": {"type": "DT_FLOAT"}}}, {"name": "StatefulPartitionedCall/model_1/conv2d_51/Conv2D_weights", "op": "Const", "attr": {"dtype": {"type": "DT_FLOAT"}, "value": {"tensor": {"dtype": "DT_FLOAT", "tensorShape": {"dim": [{"size": "1"}, {"size": "1"}, {"size": "192"}, {"size": "2"}]}}}}}, {"name": "StatefulPartitionedCall/model_1/conv2d_16/Conv2D_weights", "op": "Const", "attr": {"dtype": {"type": "DT_FLOAT"}, "value": {"tensor": {"dtype": "DT_FLOAT", "tensorShape": {"dim": [{"size": "1"}, {"size": "1"}, {"size": "192"}, {"size": "192"}]}}}}}, {"name": "StatefulPartitionedCall/model_1/conv2d_44/Conv2D_bn_offset", "op": "Const", "attr": {"dtype": {"type": "DT_FLOAT"}, "value": {"tensor": {"dtype": "DT_FLOAT", "tensorShape": {"dim": [{"size": "384"}]}}}}}, {"name": "StatefulPartitionedCall/model_1/conv2d_16/Conv2D_bn_offset", "op": "Const", "attr": {"value": {"tensor": {"dtype": "DT_FLOAT", "tensorShape": {"dim": [{"size": "192"}]}}}, "dtype": {"type": "DT_FLOAT"}}}, {"name": "StatefulPartitionedCall/model_1/conv2d_18/Conv2D_weights", "op": "Const", "attr": {"value": {"tensor": {"dtype": "DT_FLOAT", "tensorShape": {"dim": [{"size": "3"}, {"size": "3"}, {"size": "192"}, {"size": "48"}]}}}, "dtype": {"type": "DT_FLOAT"}}}, {"name": "StatefulPartitionedCall/model_1/conv2d_18/Conv2D_bn_offset", "op": "Const", "attr": {"value": {"tensor": {"dtype": "DT_FLOAT", "tensorShape": {"dim": [{"size": "48"}]}}}, "dtype": {"type": "DT_FLOAT"}}}, {"name": "StatefulPartitionedCall/model_1/conv2d_19/Conv2D_weights", "op": "Const", "attr": {"dtype": {"type": "DT_FLOAT"}, "value": {"tensor": {"dtype": "DT_FLOAT", "tensorShape": {"dim": [{"size": "3"}, {"size": "3"}, {"size": "192"}, {"size": "24"}]}}}}}, {"name": "StatefulPartitionedCall/model_1/conv2d_45/Conv2D_weights", "op": "Const", "attr": {"dtype": {"type": "DT_FLOAT"}, "value": {"tensor": {"dtype": "DT_FLOAT", "tensorShape": {"dim": [{"size": "1"}, {"size": "1"}, {"size": "384"}, {"size": "384"}]}}}}}, {"name": "StatefulPartitionedCall/model_1/conv2d_19/Conv2D_bn_offset", "op": "Const", "attr": {"dtype": {"type": "DT_FLOAT"}, "value": {"tensor": {"dtype": "DT_FLOAT", "tensorShape": {"dim": [{"size": "24"}]}}}}}, {"name": "StatefulPartitionedCall/model_1/conv2d_20/Conv2D_weights", "op": "Const", "attr": {"dtype": {"type": "DT_FLOAT"}, "value": {"tensor": {"dtype": "DT_FLOAT", "tensorShape": {"dim": [{"size": "3"}, {"size": "3"}, {"size": "192"}, {"size": "24"}]}}}}}, {"name": "StatefulPartitionedCall/model_1/conv2d_45/Conv2D_bn_offset", "op": "Const", "attr": {"value": {"tensor": {"dtype": "DT_FLOAT", "tensorShape": {"dim": [{"size": "384"}]}}}, "dtype": {"type": "DT_FLOAT"}}}, {"name": "StatefulPartitionedCall/model_1/conv2d_20/Conv2D_bn_offset", "op": "Const", "attr": {"value": {"tensor": {"dtype": "DT_FLOAT", "tensorShape": {"dim": [{"size": "24"}]}}}, "dtype": {"type": "DT_FLOAT"}}}, {"name": "StatefulPartitionedCall/model_1/conv2d_17/Conv2D_weights", "op": "Const", "attr": {"value": {"tensor": {"dtype": "DT_FLOAT", "tensorShape": {"dim": [{"size": "1"}, {"size": "1"}, {"size": "192"}, {"size": "96"}]}}}, "dtype": {"type": "DT_FLOAT"}}}, {"name": "StatefulPartitionedCall/model_1/conv2d_17/Conv2D_bn_offset", "op": "Const", "attr": {"value": {"tensor": {"dtype": "DT_FLOAT", "tensorShape": {"dim": [{"size": "96"}]}}}, "dtype": {"type": "DT_FLOAT"}}}, {"name": "StatefulPartitionedCall/model_1/conv2d_21/Conv2D_weights", "op": "Const", "attr": {"dtype": {"type": "DT_FLOAT"}, "value": {"tensor": {"dtype": "DT_FLOAT", "tensorShape": {"dim": [{"size": "1"}, {"size": "1"}, {"size": "192"}, {"size": "192"}]}}}}}, {"name": "StatefulPartitionedCall/model_1/conv2d_21/Conv2D_bn_offset", "op": "Const", "attr": {"value": {"tensor": {"dtype": "DT_FLOAT", "tensorShape": {"dim": [{"size": "192"}]}}}, "dtype": {"type": "DT_FLOAT"}}}, {"name": "StatefulPartitionedCall/model_1/conv2d_23/Conv2D_weights", "op": "Const", "attr": {"value": {"tensor": {"dtype": "DT_FLOAT", "tensorShape": {"dim": [{"size": "3"}, {"size": "3"}, {"size": "192"}, {"size": "48"}]}}}, "dtype": {"type": "DT_FLOAT"}}}, {"name": "StatefulPartitionedCall/model_1/conv2d_46/Conv2D_weights", "op": "Const", "attr": {"value": {"tensor": {"dtype": "DT_FLOAT", "tensorShape": {"dim": [{"size": "3"}, {"size": "3"}, {"size": "672"}, {"size": "24"}]}}}, "dtype": {"type": "DT_FLOAT"}}}, {"name": "StatefulPartitionedCall/model_1/conv2d_23/Conv2D_bn_offset", "op": "Const", "attr": {"dtype": {"type": "DT_FLOAT"}, "value": {"tensor": {"dtype": "DT_FLOAT", "tensorShape": {"dim": [{"size": "48"}]}}}}}, {"name": "StatefulPartitionedCall/model_1/conv2d_51/Conv2D_bn_offset", "op": "Const", "attr": {"dtype": {"type": "DT_FLOAT"}, "value": {"tensor": {"dtype": "DT_FLOAT", "tensorShape": {"dim": [{"size": "2"}]}}}}}, {"name": "StatefulPartitionedCall/model_1/conv2d_24/Conv2D_weights", "op": "Const", "attr": {"value": {"tensor": {"dtype": "DT_FLOAT", "tensorShape": {"dim": [{"size": "3"}, {"size": "3"}, {"size": "192"}, {"size": "24"}]}}}, "dtype": {"type": "DT_FLOAT"}}}, {"name": "StatefulPartitionedCall/model_1/conv2d_46/Conv2D_bn_offset", "op": "Const", "attr": {"dtype": {"type": "DT_FLOAT"}, "value": {"tensor": {"dtype": "DT_FLOAT", "tensorShape": {"dim": [{"size": "24"}]}}}}}, {"name": "StatefulPartitionedCall/model_1/conv2d_24/Conv2D_bn_offset", "op": "Const", "attr": {"value": {"tensor": {"dtype": "DT_FLOAT", "tensorShape": {"dim": [{"size": "24"}]}}}, "dtype": {"type": "DT_FLOAT"}}}, {"name": "StatefulPartitionedCall/model_1/conv2d_25/Conv2D_weights", "op": "Const", "attr": {"value": {"tensor": {"dtype": "DT_FLOAT", "tensorShape": {"dim": [{"size": "3"}, {"size": "3"}, {"size": "192"}, {"size": "24"}]}}}, "dtype": {"type": "DT_FLOAT"}}}, {"name": "StatefulPartitionedCall/model_1/conv2d_25/Conv2D_bn_offset", "op": "Const", "attr": {"value": {"tensor": {"dtype": "DT_FLOAT", "tensorShape": {"dim": [{"size": "24"}]}}}, "dtype": {"type": "DT_FLOAT"}}}, {"name": "StatefulPartitionedCall/model_1/conv2d_22/Conv2D_weights", "op": "Const", "attr": {"value": {"tensor": {"dtype": "DT_FLOAT", "tensorShape": {"dim": [{"size": "1"}, {"size": "1"}, {"size": "192"}, {"size": "96"}]}}}, "dtype": {"type": "DT_FLOAT"}}}, {"name": "StatefulPartitionedCall/model_1/conv2d_22/Conv2D_bn_offset", "op": "Const", "attr": {"value": {"tensor": {"dtype": "DT_FLOAT", "tensorShape": {"dim": [{"size": "96"}]}}}, "dtype": {"type": "DT_FLOAT"}}}, {"name": "StatefulPartitionedCall/model_1/conv2d_40/Conv2D_weights", "op": "Const", "attr": {"dtype": {"type": "DT_FLOAT"}, "value": {"tensor": {"dtype": "DT_FLOAT", "tensorShape": {"dim": [{"size": "3"}, {"size": "3"}, {"size": "196"}, {"size": "192"}]}}}}}, {"name": "StatefulPartitionedCall/model_1/conv2d_40/Conv2D_bn_offset", "op": "Const", "attr": {"value": {"tensor": {"dtype": "DT_FLOAT", "tensorShape": {"dim": [{"size": "192"}]}}}, "dtype": {"type": "DT_FLOAT"}}}, {"name": "StatefulPartitionedCall/model_1/conv2d_41/Conv2D_weights", "op": "Const", "attr": {"value": {"tensor": {"dtype": "DT_FLOAT", "tensorShape": {"dim": [{"size": "1"}, {"size": "1"}, {"size": "192"}, {"size": "192"}]}}}, "dtype": {"type": "DT_FLOAT"}}}, {"name": "StatefulPartitionedCall/model_1/conv2d_41/Conv2D_bn_offset", "op": "Const", "attr": {"dtype": {"type": "DT_FLOAT"}, "value": {"tensor": {"dtype": "DT_FLOAT", "tensorShape": {"dim": [{"size": "192"}]}}}}}, {"name": "StatefulPartitionedCall/model_1/conv2d_42/Conv2D_weights", "op": "Const", "attr": {"dtype": {"type": "DT_FLOAT"}, "value": {"tensor": {"dtype": "DT_FLOAT", "tensorShape": {"dim": [{"size": "1"}, {"size": "1"}, {"size": "192"}, {"size": "192"}]}}}}}, {"name": "StatefulPartitionedCall/model_1/conv2d_42/Conv2D_bn_offset", "op": "Const", "attr": {"dtype": {"type": "DT_FLOAT"}, "value": {"tensor": {"dtype": "DT_FLOAT", "tensorShape": {"dim": [{"size": "192"}]}}}}}, {"name": "StatefulPartitionedCall/model_1/conv2d_26/Conv2D_weights", "op": "Const", "attr": {"dtype": {"type": "DT_FLOAT"}, "value": {"tensor": {"dtype": "DT_FLOAT", "tensorShape": {"dim": [{"size": "1"}, {"size": "1"}, {"size": "192"}, {"size": "192"}]}}}}}, {"name": "StatefulPartitionedCall/model_1/resizing/resize/ResizeBilinear", "op": "ResizeBilinear", "input": ["input_1", "StatefulPartitionedCall/model_1/resizing/resize/size"], "attr": {"T": {"type": "DT_FLOAT"}, "half_pixel_centers": {"b": true}, "align_corners": {"b": false}}}, {"name": "StatefulPartitionedCall/model_1/resizing_1/resize/ResizeBilinear", "op": "ResizeBilinear", "input": ["input_1", "StatefulPartitionedCall/model_1/resizing_1/resize/size"], "attr": {"T": {"type": "DT_FLOAT"}, "align_corners": {"b": false}, "half_pixel_centers": {"b": true}}}, {"name": "StatefulPartitionedCall/model_1/activation/Relu6", "op": "_FusedConv2D", "input": ["input_1", "StatefulPartitionedCall/model_1/conv2d/Conv2D_weights", "StatefulPartitionedCall/model_1/conv2d/Conv2D_bn_offset"], "device": "/device:CPU:0", "attr": {"strides": {"list": {"i": ["1", "2", "2", "1"]}}, "padding": {"s": "U0FNRQ=="}, "dilations": {"list": {"i": ["1", "1", "1", "1"]}}, "T": {"type": "DT_FLOAT"}, "leakyrelu_alpha": {"f": 0.2}, "epsilon": {"f": 0.0}, "num_args": {"i": "1"}, "explicit_paddings": {"list": {}}, "data_format": {"s": "TkhXQw=="}, "use_cudnn_on_gpu": {"b": true}, "fused_ops": {"list": {"s": ["Qmlhc0FkZA==", "UmVsdTY="]}}}}, {"name": "StatefulPartitionedCall/model_1/tf.__operators__.getitem/strided_slice", "op": "StridedSlice", "input": ["StatefulPartitionedCall/model_1/resizing/resize/ResizeBilinear", "StatefulPartitionedCall/model_1/tf.__operators__.getitem/strided_slice/stack", "StatefulPartitionedCall/model_1/tf.__operators__.getitem/strided_slice/stack_1", "StatefulPartitionedCall/model_1/tf.__operators__.getitem/strided_slice/stack_2"], "attr": {"end_mask": {"i": "7"}, "new_axis_mask": {"i": "0"}, "ellipsis_mask": {"i": "0"}, "begin_mask": {"i": "7"}, "T": {"type": "DT_FLOAT"}, "shrink_axis_mask": {"i": "0"}, "Index": {"type": "DT_INT32"}}}, {"name": "StatefulPartitionedCall/model_1/tf.__operators__.getitem_1/strided_slice", "op": "StridedSlice", "input": ["StatefulPartitionedCall/model_1/resizing/resize/ResizeBilinear", "StatefulPartitionedCall/model_1/tf.__operators__.getitem_1/strided_slice/stack", "StatefulPartitionedCall/model_1/tf.__operators__.getitem_1/strided_slice/stack_1", "StatefulPartitionedCall/model_1/tf.__operators__.getitem_1/strided_slice/stack_2"], "attr": {"begin_mask": {"i": "7"}, "ellipsis_mask": {"i": "0"}, "shrink_axis_mask": {"i": "0"}, "T": {"type": "DT_FLOAT"}, "new_axis_mask": {"i": "0"}, "end_mask": {"i": "7"}, "Index": {"type": "DT_INT32"}}}, {"name": "StatefulPartitionedCall/model_1/tf.__operators__.getitem_2/strided_slice", "op": "StridedSlice", "input": ["StatefulPartitionedCall/model_1/resizing/resize/ResizeBilinear", "StatefulPartitionedCall/model_1/tf.__operators__.getitem_2/strided_slice/stack", "StatefulPartitionedCall/model_1/tf.__operators__.getitem_2/strided_slice/stack_1", "StatefulPartitionedCall/model_1/tf.__operators__.getitem_2/strided_slice/stack_2"], "attr": {"shrink_axis_mask": {"i": "0"}, "Index": {"type": "DT_INT32"}, "ellipsis_mask": {"i": "0"}, "begin_mask": {"i": "7"}, "new_axis_mask": {"i": "0"}, "T": {"type": "DT_FLOAT"}, "end_mask": {"i": "7"}}}, {"name": "StatefulPartitionedCall/model_1/tf.__operators__.getitem_3/strided_slice", "op": "StridedSlice", "input": ["StatefulPartitionedCall/model_1/resizing_1/resize/ResizeBilinear", "StatefulPartitionedCall/model_1/tf.__operators__.getitem_3/strided_slice/stack", "StatefulPartitionedCall/model_1/tf.__operators__.getitem_3/strided_slice/stack_1", "StatefulPartitionedCall/model_1/tf.__operators__.getitem_3/strided_slice/stack_2"], "attr": {"T": {"type": "DT_FLOAT"}, "shrink_axis_mask": {"i": "0"}, "new_axis_mask": {"i": "0"}, "begin_mask": {"i": "7"}, "ellipsis_mask": {"i": "0"}, "end_mask": {"i": "7"}, "Index": {"type": "DT_INT32"}}}, {"name": "StatefulPartitionedCall/model_1/tf.__operators__.getitem_4/strided_slice", "op": "StridedSlice", "input": ["StatefulPartitionedCall/model_1/resizing_1/resize/ResizeBilinear", "StatefulPartitionedCall/model_1/tf.__operators__.getitem_4/strided_slice/stack", "StatefulPartitionedCall/model_1/tf.__operators__.getitem_4/strided_slice/stack_1", "StatefulPartitionedCall/model_1/tf.__operators__.getitem_4/strided_slice/stack_2"], "attr": {"shrink_axis_mask": {"i": "0"}, "Index": {"type": "DT_INT32"}, "ellipsis_mask": {"i": "0"}, "begin_mask": {"i": "7"}, "T": {"type": "DT_FLOAT"}, "new_axis_mask": {"i": "0"}, "end_mask": {"i": "7"}}}, {"name": "StatefulPartitionedCall/model_1/tf.__operators__.getitem_5/strided_slice", "op": "StridedSlice", "input": ["StatefulPartitionedCall/model_1/resizing_1/resize/ResizeBilinear", "StatefulPartitionedCall/model_1/tf.__operators__.getitem_5/strided_slice/stack", "StatefulPartitionedCall/model_1/tf.__operators__.getitem_5/strided_slice/stack_1", "StatefulPartitionedCall/model_1/tf.__operators__.getitem_5/strided_slice/stack_2"], "attr": {"shrink_axis_mask": {"i": "0"}, "end_mask": {"i": "7"}, "T": {"type": "DT_FLOAT"}, "ellipsis_mask": {"i": "0"}, "begin_mask": {"i": "7"}, "new_axis_mask": {"i": "0"}, "Index": {"type": "DT_INT32"}}}, {"name": "StatefulPartitionedCall/model_1/activation_1/Relu6", "op": "_FusedConv2D", "input": ["StatefulPartitionedCall/model_1/activation/Relu6", "StatefulPartitionedCall/model_1/conv2d_1/Conv2D_weights", "StatefulPartitionedCall/model_1/conv2d_1/Conv2D_bn_offset"], "device": "/device:CPU:0", "attr": {"leakyrelu_alpha": {"f": 0.2}, "data_format": {"s": "TkhXQw=="}, "use_cudnn_on_gpu": {"b": true}, "num_args": {"i": "1"}, "dilations": {"list": {"i": ["1", "1", "1", "1"]}}, "epsilon": {"f": 0.0}, "fused_ops": {"list": {"s": ["Qmlhc0FkZA==", "UmVsdTY="]}}, "padding": {"s": "U0FNRQ=="}, "strides": {"list": {"i": ["1", "2", "2", "1"]}}, "T": {"type": "DT_FLOAT"}, "explicit_paddings": {"list": {}}}}, {"name": "StatefulPartitionedCall/model_1/tf.math.multiply/Mul", "op": "Mul", "input": ["unknown_130", "StatefulPartitionedCall/model_1/tf.__operators__.getitem/strided_slice"], "attr": {"T": {"type": "DT_FLOAT"}}}, {"name": "StatefulPartitionedCall/model_1/tf.math.multiply_1/Mul", "op": "Mul", "input": ["unknown_131", "StatefulPartitionedCall/model_1/tf.__operators__.getitem_1/strided_slice"], "attr": {"T": {"type": "DT_FLOAT"}}}, {"name": "StatefulPartitionedCall/model_1/tf.math.multiply_2/Mul", "op": "Mul", "input": ["unknown_133", "StatefulPartitionedCall/model_1/tf.__operators__.getitem_2/strided_slice"], "attr": {"T": {"type": "DT_FLOAT"}}}, {"name": "StatefulPartitionedCall/model_1/tf.math.multiply_6/Mul", "op": "Mul", "input": ["unknown_95", "StatefulPartitionedCall/model_1/tf.__operators__.getitem_3/strided_slice"], "attr": {"T": {"type": "DT_FLOAT"}}}, {"name": "StatefulPartitionedCall/model_1/tf.math.multiply_7/Mul", "op": "Mul", "input": ["unknown_96", "StatefulPartitionedCall/model_1/tf.__operators__.getitem_4/strided_slice"], "attr": {"T": {"type": "DT_FLOAT"}}}, {"name": "StatefulPartitionedCall/model_1/tf.math.multiply_8/Mul", "op": "Mul", "input": ["unknown_99", "StatefulPartitionedCall/model_1/tf.__operators__.getitem_5/strided_slice"], "attr": {"T": {"type": "DT_FLOAT"}}}, {"name": "StatefulPartitionedCall/model_1/activation_3/Relu6", "op": "_FusedConv2D", "input": ["StatefulPartitionedCall/model_1/activation_1/Relu6", "StatefulPartitionedCall/model_1/conv2d_3/Conv2D_weights", "StatefulPartitionedCall/model_1/conv2d_3/Conv2D_bn_offset"], "device": "/device:CPU:0", "attr": {"explicit_paddings": {"list": {}}, "dilations": {"list": {"i": ["1", "1", "1", "1"]}}, "leakyrelu_alpha": {"f": 0.2}, "T": {"type": "DT_FLOAT"}, "use_cudnn_on_gpu": {"b": true}, "strides": {"list": {"i": ["1", "2", "2", "1"]}}, "padding": {"s": "U0FNRQ=="}, "fused_ops": {"list": {"s": ["Qmlhc0FkZA==", "UmVsdTY="]}}, "data_format": {"s": "TkhXQw=="}, "epsilon": {"f": 0.0}, "num_args": {"i": "1"}}}, {"name": "StatefulPartitionedCall/model_1/activation_4/Relu6", "op": "_FusedConv2D", "input": ["StatefulPartitionedCall/model_1/activation_1/Relu6", "StatefulPartitionedCall/model_1/conv2d_4/Conv2D_weights", "StatefulPartitionedCall/model_1/conv2d_4/Conv2D_bn_offset"], "device": "/device:CPU:0", "attr": {"use_cudnn_on_gpu": {"b": true}, "dilations": {"list": {"i": ["1", "1", "1", "1"]}}, "T": {"type": "DT_FLOAT"}, "epsilon": {"f": 0.0}, "explicit_paddings": {"list": {}}, "data_format": {"s": "TkhXQw=="}, "padding": {"s": "U0FNRQ=="}, "strides": {"list": {"i": ["1", "2", "2", "1"]}}, "num_args": {"i": "1"}, "leakyrelu_alpha": {"f": 0.2}, "fused_ops": {"list": {"s": ["Qmlhc0FkZA==", "UmVsdTY="]}}}}, {"name": "StatefulPartitionedCall/model_1/activation_5/Relu6", "op": "_FusedConv2D", "input": ["StatefulPartitionedCall/model_1/activation_1/Relu6", "StatefulPartitionedCall/model_1/conv2d_5/Conv2D_weights", "StatefulPartitionedCall/model_1/conv2d_5/Conv2D_bn_offset"], "device": "/device:CPU:0", "attr": {"fused_ops": {"list": {"s": ["Qmlhc0FkZA==", "UmVsdTY="]}}, "T": {"type": "DT_FLOAT"}, "strides": {"list": {"i": ["1", "2", "2", "1"]}}, "num_args": {"i": "1"}, "padding": {"s": "U0FNRQ=="}, "epsilon": {"f": 0.0}, "data_format": {"s": "TkhXQw=="}, "dilations": {"list": {"i": ["1", "1", "1", "1"]}}, "explicit_paddings": {"list": {}}, "use_cudnn_on_gpu": {"b": true}, "leakyrelu_alpha": {"f": 0.2}}}, {"name": "StatefulPartitionedCall/model_1/activation_2/Relu6", "op": "_FusedConv2D", "input": ["StatefulPartitionedCall/model_1/activation_1/Relu6", "StatefulPartitionedCall/model_1/conv2d_2/Conv2D_weights", "StatefulPartitionedCall/model_1/conv2d_2/Conv2D_bn_offset"], "device": "/device:CPU:0", "attr": {"leakyrelu_alpha": {"f": 0.2}, "fused_ops": {"list": {"s": ["Qmlhc0FkZA==", "UmVsdTY="]}}, "T": {"type": "DT_FLOAT"}, "strides": {"list": {"i": ["1", "1", "1", "1"]}}, "num_args": {"i": "1"}, "use_cudnn_on_gpu": {"b": true}, "explicit_paddings": {"list": {}}, "epsilon": {"f": 0.0}, "dilations": {"list": {"i": ["1", "1", "1", "1"]}}, "data_format": {"s": "TkhXQw=="}, "padding": {"s": "U0FNRQ=="}}}, {"name": "StatefulPartitionedCall/model_1/tf.__operators__.add/AddV2", "op": "AddV2", "input": ["StatefulPartitionedCall/model_1/tf.math.multiply/Mul", "StatefulPartitionedCall/model_1/tf.math.multiply_1/Mul"], "attr": {"T": {"type": "DT_FLOAT"}}}, {"name": "StatefulPartitionedCall/model_1/tf.__operators__.add_3/AddV2", "op": "AddV2", "input": ["StatefulPartitionedCall/model_1/tf.math.multiply_6/Mul", "StatefulPartitionedCall/model_1/tf.math.multiply_7/Mul"], "attr": {"T": {"type": "DT_FLOAT"}}}, {"name": "StatefulPartitionedCall/model_1/average_pooling2d/AvgPool", "op": "AvgPool", "input": ["StatefulPartitionedCall/model_1/activation_2/Relu6"], "attr": {"ksize": {"list": {"i": ["1", "3", "3", "1"]}}, "T": {"type": "DT_FLOAT"}, "strides": {"list": {"i": ["1", "2", "2", "1"]}}, "padding": {"s": "U0FNRQ=="}, "data_format": {"s": "TkhXQw=="}}}, {"name": "StatefulPartitionedCall/model_1/tf.__operators__.add_1/AddV2", "op": "AddV2", "input": ["StatefulPartitionedCall/model_1/tf.__operators__.add/AddV2", "StatefulPartitionedCall/model_1/tf.math.multiply_2/Mul"], "attr": {"T": {"type": "DT_FLOAT"}}}, {"name": "StatefulPartitionedCall/model_1/tf.__operators__.add_4/AddV2", "op": "AddV2", "input": ["StatefulPartitionedCall/model_1/tf.__operators__.add_3/AddV2", "StatefulPartitionedCall/model_1/tf.math.multiply_8/Mul"], "attr": {"T": {"type": "DT_FLOAT"}}}, {"name": "StatefulPartitionedCall/model_1/concatenate/concat", "op": "ConcatV2", "input": ["StatefulPartitionedCall/model_1/activation_3/Relu6", "StatefulPartitionedCall/model_1/activation_4/Relu6", "StatefulPartitionedCall/model_1/activation_5/Relu6", "StatefulPartitionedCall/model_1/average_pooling2d/AvgPool", "StatefulPartitionedCall/model_1/concatenate/concat/axis"], "attr": {"T": {"type": "DT_FLOAT"}, "Tidx": {"type": "DT_INT32"}, "N": {"i": "4"}}}, {"name": "StatefulPartitionedCall/model_1/tf.compat.v1.nn.conv2d/Conv2D", "op": "Conv2D", "input": ["StatefulPartitionedCall/model_1/tf.__operators__.add_1/AddV2", "unknown_137"], "device": "/device:CPU:0", "attr": {"T": {"type": "DT_FLOAT"}, "strides": {"list": {"i": ["1", "1", "1", "1"]}}, "data_format": {"s": "TkhXQw=="}, "use_cudnn_on_gpu": {"b": true}, "padding": {"s": "U0FNRQ=="}, "explicit_paddings": {"list": {}}, "dilations": {"list": {"i": ["1", "1", "1", "1"]}}}}, {"name": "StatefulPartitionedCall/model_1/tf.compat.v1.nn.conv2d_1/Conv2D", "op": "Conv2D", "input": ["StatefulPartitionedCall/model_1/tf.__operators__.add_1/AddV2", "unknown_136"], "device": "/device:CPU:0", "attr": {"T": {"type": "DT_FLOAT"}, "padding": {"s": "U0FNRQ=="}, "use_cudnn_on_gpu": {"b": true}, "dilations": {"list": {"i": ["1", "1", "1", "1"]}}, "explicit_paddings": {"list": {}}, "data_format": {"s": "TkhXQw=="}, "strides": {"list": {"i": ["1", "1", "1", "1"]}}}}, {"name": "StatefulPartitionedCall/model_1/tf.compat.v1.nn.conv2d_2/Conv2D", "op": "Conv2D", "input": ["StatefulPartitionedCall/model_1/tf.__operators__.add_4/AddV2", "unknown_105"], "device": "/device:CPU:0", "attr": {"explicit_paddings": {"list": {}}, "dilations": {"list": {"i": ["1", "1", "1", "1"]}}, "use_cudnn_on_gpu": {"b": true}, "data_format": {"s": "TkhXQw=="}, "T": {"type": "DT_FLOAT"}, "strides": {"list": {"i": ["1", "1", "1", "1"]}}, "padding": {"s": "U0FNRQ=="}}}, {"name": "StatefulPartitionedCall/model_1/tf.compat.v1.nn.conv2d_3/Conv2D", "op": "Conv2D", "input": ["StatefulPartitionedCall/model_1/tf.__operators__.add_4/AddV2", "unknown_104"], "device": "/device:CPU:0", "attr": {"explicit_paddings": {"list": {}}, "padding": {"s": "U0FNRQ=="}, "dilations": {"list": {"i": ["1", "1", "1", "1"]}}, "T": {"type": "DT_FLOAT"}, "use_cudnn_on_gpu": {"b": true}, "strides": {"list": {"i": ["1", "1", "1", "1"]}}, "data_format": {"s": "TkhXQw=="}}}, {"name": "StatefulPartitionedCall/model_1/activation_6/Relu6", "op": "_FusedConv2D", "input": ["StatefulPartitionedCall/model_1/concatenate/concat", "StatefulPartitionedCall/model_1/conv2d_6/Conv2D_weights", "StatefulPartitionedCall/model_1/conv2d_6/Conv2D_bn_offset"], "device": "/device:CPU:0", "attr": {"dilations": {"list": {"i": ["1", "1", "1", "1"]}}, "data_format": {"s": "TkhXQw=="}, "fused_ops": {"list": {"s": ["Qmlhc0FkZA==", "UmVsdTY="]}}, "leakyrelu_alpha": {"f": 0.2}, "use_cudnn_on_gpu": {"b": true}, "num_args": {"i": "1"}, "explicit_paddings": {"list": {}}, "padding": {"s": "U0FNRQ=="}, "epsilon": {"f": 0.0}, "strides": {"list": {"i": ["1", "1", "1", "1"]}}, "T": {"type": "DT_FLOAT"}}}, {"name": "StatefulPartitionedCall/model_1/tf.math.multiply_3/ArithmeticOptimizer/ReplaceMulWithSquare_Mul", "op": "Square", "input": ["StatefulPartitionedCall/model_1/tf.compat.v1.nn.conv2d/Conv2D"], "attr": {"T": {"type": "DT_FLOAT"}}}, {"name": "StatefulPartitionedCall/model_1/tf.math.multiply_4/ArithmeticOptimizer/ReplaceMulWithSquare_Mul", "op": "Square", "input": ["StatefulPartitionedCall/model_1/tf.compat.v1.nn.conv2d_1/Conv2D"], "attr": {"T": {"type": "DT_FLOAT"}}}, {"name": "StatefulPartitionedCall/model_1/tf.math.multiply_9/ArithmeticOptimizer/ReplaceMulWithSquare_Mul", "op": "Square", "input": ["StatefulPartitionedCall/model_1/tf.compat.v1.nn.conv2d_2/Conv2D"], "attr": {"T": {"type": "DT_FLOAT"}}}, {"name": "StatefulPartitionedCall/model_1/tf.math.multiply_10/ArithmeticOptimizer/ReplaceMulWithSquare_Mul", "op": "Square", "input": ["StatefulPartitionedCall/model_1/tf.compat.v1.nn.conv2d_3/Conv2D"], "attr": {"T": {"type": "DT_FLOAT"}}}, {"name": "StatefulPartitionedCall/model_1/activation_8/Relu6", "op": "_FusedConv2D", "input": ["StatefulPartitionedCall/model_1/activation_6/Relu6", "StatefulPartitionedCall/model_1/conv2d_8/Conv2D_weights", "StatefulPartitionedCall/model_1/conv2d_8/Conv2D_bn_offset"], "device": "/device:CPU:0", "attr": {"use_cudnn_on_gpu": {"b": true}, "epsilon": {"f": 0.0}, "fused_ops": {"list": {"s": ["Qmlhc0FkZA==", "UmVsdTY="]}}, "T": {"type": "DT_FLOAT"}, "strides": {"list": {"i": ["1", "1", "1", "1"]}}, "leakyrelu_alpha": {"f": 0.2}, "data_format": {"s": "TkhXQw=="}, "explicit_paddings": {"list": {}}, "padding": {"s": "U0FNRQ=="}, "dilations": {"list": {"i": ["1", "1", "1", "1"]}}, "num_args": {"i": "1"}}}, {"name": "StatefulPartitionedCall/model_1/activation_9/Relu6", "op": "_FusedConv2D", "input": ["StatefulPartitionedCall/model_1/activation_6/Relu6", "StatefulPartitionedCall/model_1/conv2d_9/Conv2D_weights", "StatefulPartitionedCall/model_1/conv2d_9/Conv2D_bn_offset"], "device": "/device:CPU:0", "attr": {"strides": {"list": {"i": ["1", "1", "1", "1"]}}, "padding": {"s": "U0FNRQ=="}, "data_format": {"s": "TkhXQw=="}, "T": {"type": "DT_FLOAT"}, "fused_ops": {"list": {"s": ["Qmlhc0FkZA==", "UmVsdTY="]}}, "use_cudnn_on_gpu": {"b": true}, "epsilon": {"f": 0.0}, "dilations": {"list": {"i": ["1", "1", "1", "1"]}}, "explicit_paddings": {"list": {}}, "leakyrelu_alpha": {"f": 0.2}, "num_args": {"i": "1"}}}, {"name": "StatefulPartitionedCall/model_1/activation_10/Relu6", "op": "_FusedConv2D", "input": ["StatefulPartitionedCall/model_1/activation_6/Relu6", "StatefulPartitionedCall/model_1/conv2d_10/Conv2D_weights", "StatefulPartitionedCall/model_1/conv2d_10/Conv2D_bn_offset"], "device": "/device:CPU:0", "attr": {"data_format": {"s": "TkhXQw=="}, "epsilon": {"f": 0.0}, "dilations": {"list": {"i": ["1", "1", "1", "1"]}}, "fused_ops": {"list": {"s": ["Qmlhc0FkZA==", "UmVsdTY="]}}, "T": {"type": "DT_FLOAT"}, "use_cudnn_on_gpu": {"b": true}, "padding": {"s": "U0FNRQ=="}, "num_args": {"i": "1"}, "strides": {"list": {"i": ["1", "1", "1", "1"]}}, "explicit_paddings": {"list": {}}, "leakyrelu_alpha": {"f": 0.2}}}, {"name": "StatefulPartitionedCall/model_1/activation_7/Relu6", "op": "_FusedConv2D", "input": ["StatefulPartitionedCall/model_1/activation_6/Relu6", "StatefulPartitionedCall/model_1/conv2d_7/Conv2D_weights", "StatefulPartitionedCall/model_1/conv2d_7/Conv2D_bn_offset"], "device": "/device:CPU:0", "attr": {"num_args": {"i": "1"}, "data_format": {"s": "TkhXQw=="}, "epsilon": {"f": 0.0}, "dilations": {"list": {"i": ["1", "1", "1", "1"]}}, "T": {"type": "DT_FLOAT"}, "fused_ops": {"list": {"s": ["Qmlhc0FkZA==", "UmVsdTY="]}}, "leakyrelu_alpha": {"f": 0.2}, "strides": {"list": {"i": ["1", "1", "1", "1"]}}, "use_cudnn_on_gpu": {"b": true}, "padding": {"s": "U0FNRQ=="}, "explicit_paddings": {"list": {}}}}, {"name": "StatefulPartitionedCall/model_1/tf.__operators__.add_2/AddV2", "op": "AddV2", "input": ["StatefulPartitionedCall/model_1/tf.math.multiply_3/ArithmeticOptimizer/ReplaceMulWithSquare_Mul", "StatefulPartitionedCall/model_1/tf.math.multiply_4/ArithmeticOptimizer/ReplaceMulWithSquare_Mul"], "attr": {"T": {"type": "DT_FLOAT"}}}, {"name": "StatefulPartitionedCall/model_1/tf.__operators__.add_5/AddV2", "op": "AddV2", "input": ["StatefulPartitionedCall/model_1/tf.math.multiply_9/ArithmeticOptimizer/ReplaceMulWithSquare_Mul", "StatefulPartitionedCall/model_1/tf.math.multiply_10/ArithmeticOptimizer/ReplaceMulWithSquare_Mul"], "attr": {"T": {"type": "DT_FLOAT"}}}, {"name": "StatefulPartitionedCall/model_1/average_pooling2d_1/AvgPool", "op": "AvgPool", "input": ["StatefulPartitionedCall/model_1/activation_7/Relu6"], "attr": {"ksize": {"list": {"i": ["1", "3", "3", "1"]}}, "data_format": {"s": "TkhXQw=="}, "strides": {"list": {"i": ["1", "1", "1", "1"]}}, "T": {"type": "DT_FLOAT"}, "padding": {"s": "U0FNRQ=="}}}, {"name": "StatefulPartitionedCall/model_1/tf.math.pow/Pow", "op": "Sqrt", "input": ["StatefulPartitionedCall/model_1/tf.__operators__.add_2/AddV2"], "attr": {"T": {"type": "DT_FLOAT"}}}, {"name": "StatefulPartitionedCall/model_1/tf.math.pow_1/Pow", "op": "Sqrt", "input": ["StatefulPartitionedCall/model_1/tf.__operators__.add_5/AddV2"], "attr": {"T": {"type": "DT_FLOAT"}}}, {"name": "StatefulPartitionedCall/model_1/concatenate_1/concat", "op": "ConcatV2", "input": ["StatefulPartitionedCall/model_1/activation_8/Relu6", "StatefulPartitionedCall/model_1/activation_9/Relu6", "StatefulPartitionedCall/model_1/activation_10/Relu6", "StatefulPartitionedCall/model_1/average_pooling2d_1/AvgPool", "StatefulPartitionedCall/model_1/concatenate_1/concat/axis"], "attr": {"Tidx": {"type": "DT_INT32"}, "N": {"i": "4"}, "T": {"type": "DT_FLOAT"}}}, {"name": "StatefulPartitionedCall/model_1/tf.math.multiply_5/Mul", "op": "Mul", "input": ["StatefulPartitionedCall/model_1/tf.math.pow/Pow", "StatefulPartitionedCall/model_1/tf.math.truediv/truediv"], "attr": {"T": {"type": "DT_FLOAT"}}}, {"name": "StatefulPartitionedCall/model_1/tf.math.multiply_11/Mul", "op": "Mul", "input": ["StatefulPartitionedCall/model_1/tf.math.pow_1/Pow", "StatefulPartitionedCall/model_1/tf.math.truediv_1/truediv"], "attr": {"T": {"type": "DT_FLOAT"}}}, {"name": "StatefulPartitionedCall/model_1/activation_11/Relu6", "op": "_FusedConv2D", "input": ["StatefulPartitionedCall/model_1/concatenate_1/concat", "StatefulPartitionedCall/model_1/conv2d_11/Conv2D_weights", "StatefulPartitionedCall/model_1/conv2d_11/Conv2D_bn_offset"], "device": "/device:CPU:0", "attr": {"leakyrelu_alpha": {"f": 0.2}, "padding": {"s": "U0FNRQ=="}, "num_args": {"i": "1"}, "use_cudnn_on_gpu": {"b": true}, "explicit_paddings": {"list": {}}, "epsilon": {"f": 0.0}, "T": {"type": "DT_FLOAT"}, "fused_ops": {"list": {"s": ["Qmlhc0FkZA==", "UmVsdTY="]}}, "dilations": {"list": {"i": ["1", "1", "1", "1"]}}, "data_format": {"s": "TkhXQw=="}, "strides": {"list": {"i": ["1", "1", "1", "1"]}}}}, {"name": "StatefulPartitionedCall/model_1/tf.math.greater/Greater", "op": "Greater", "input": ["StatefulPartitionedCall/model_1/tf.math.multiply_5/Mul", "StatefulPartitionedCall/model_1/tf.math.greater/Greater/y"], "attr": {"T": {"type": "DT_FLOAT"}}}, {"name": "StatefulPartitionedCall/model_1/tf.math.greater_1/Greater", "op": "Greater", "input": ["StatefulPartitionedCall/model_1/tf.math.multiply_11/Mul", "StatefulPartitionedCall/model_1/tf.math.greater_1/Greater/y"], "attr": {"T": {"type": "DT_FLOAT"}}}, {"name": "StatefulPartitionedCall/model_1/activation_13/Relu6", "op": "_FusedConv2D", "input": ["StatefulPartitionedCall/model_1/activation_11/Relu6", "StatefulPartitionedCall/model_1/conv2d_13/Conv2D_weights", "StatefulPartitionedCall/model_1/conv2d_13/Conv2D_bn_offset"], "device": "/device:CPU:0", "attr": {"num_args": {"i": "1"}, "use_cudnn_on_gpu": {"b": true}, "T": {"type": "DT_FLOAT"}, "epsilon": {"f": 0.0}, "padding": {"s": "U0FNRQ=="}, "strides": {"list": {"i": ["1", "2", "2", "1"]}}, "data_format": {"s": "TkhXQw=="}, "leakyrelu_alpha": {"f": 0.2}, "explicit_paddings": {"list": {}}, "dilations": {"list": {"i": ["1", "1", "1", "1"]}}, "fused_ops": {"list": {"s": ["Qmlhc0FkZA==", "UmVsdTY="]}}}}, {"name": "StatefulPartitionedCall/model_1/activation_14/Relu6", "op": "_FusedConv2D", "input": ["StatefulPartitionedCall/model_1/activation_11/Relu6", "StatefulPartitionedCall/model_1/conv2d_14/Conv2D_weights", "StatefulPartitionedCall/model_1/conv2d_14/Conv2D_bn_offset"], "device": "/device:CPU:0", "attr": {"epsilon": {"f": 0.0}, "data_format": {"s": "TkhXQw=="}, "dilations": {"list": {"i": ["1", "1", "1", "1"]}}, "T": {"type": "DT_FLOAT"}, "num_args": {"i": "1"}, "padding": {"s": "U0FNRQ=="}, "leakyrelu_alpha": {"f": 0.2}, "explicit_paddings": {"list": {}}, "fused_ops": {"list": {"s": ["Qmlhc0FkZA==", "UmVsdTY="]}}, "strides": {"list": {"i": ["1", "2", "2", "1"]}}, "use_cudnn_on_gpu": {"b": true}}}, {"name": "StatefulPartitionedCall/model_1/activation_15/Relu6", "op": "_FusedConv2D", "input": ["StatefulPartitionedCall/model_1/activation_11/Relu6", "StatefulPartitionedCall/model_1/conv2d_15/Conv2D_weights", "StatefulPartitionedCall/model_1/conv2d_15/Conv2D_bn_offset"], "device": "/device:CPU:0", "attr": {"epsilon": {"f": 0.0}, "data_format": {"s": "TkhXQw=="}, "num_args": {"i": "1"}, "leakyrelu_alpha": {"f": 0.2}, "strides": {"list": {"i": ["1", "2", "2", "1"]}}, "use_cudnn_on_gpu": {"b": true}, "fused_ops": {"list": {"s": ["Qmlhc0FkZA==", "UmVsdTY="]}}, "T": {"type": "DT_FLOAT"}, "padding": {"s": "U0FNRQ=="}, "dilations": {"list": {"i": ["1", "1", "1", "1"]}}, "explicit_paddings": {"list": {}}}}, {"name": "StatefulPartitionedCall/model_1/activation_12/Relu6", "op": "_FusedConv2D", "input": ["StatefulPartitionedCall/model_1/activation_11/Relu6", "StatefulPartitionedCall/model_1/conv2d_12/Conv2D_weights", "StatefulPartitionedCall/model_1/conv2d_12/Conv2D_bn_offset"], "device": "/device:CPU:0", "attr": {"leakyrelu_alpha": {"f": 0.2}, "epsilon": {"f": 0.0}, "explicit_paddings": {"list": {}}, "fused_ops": {"list": {"s": ["Qmlhc0FkZA==", "UmVsdTY="]}}, "data_format": {"s": "TkhXQw=="}, "use_cudnn_on_gpu": {"b": true}, "strides": {"list": {"i": ["1", "1", "1", "1"]}}, "T": {"type": "DT_FLOAT"}, "num_args": {"i": "1"}, "dilations": {"list": {"i": ["1", "1", "1", "1"]}}, "padding": {"s": "U0FNRQ=="}}}, {"name": "StatefulPartitionedCall/model_1/tf.cast/Cast", "op": "Cast", "input": ["StatefulPartitionedCall/model_1/tf.math.greater/Greater"], "attr": {"SrcT": {"type": "DT_BOOL"}, "Truncate": {"b": false}, "DstT": {"type": "DT_FLOAT"}}}, {"name": "StatefulPartitionedCall/model_1/tf.cast_1/Cast", "op": "Cast", "input": ["StatefulPartitionedCall/model_1/tf.math.greater_1/Greater"], "attr": {"SrcT": {"type": "DT_BOOL"}, "DstT": {"type": "DT_FLOAT"}, "Truncate": {"b": false}}}, {"name": "StatefulPartitionedCall/model_1/average_pooling2d_2/AvgPool", "op": "AvgPool", "input": ["StatefulPartitionedCall/model_1/activation_12/Relu6"], "attr": {"T": {"type": "DT_FLOAT"}, "padding": {"s": "U0FNRQ=="}, "ksize": {"list": {"i": ["1", "3", "3", "1"]}}, "data_format": {"s": "TkhXQw=="}, "strides": {"list": {"i": ["1", "2", "2", "1"]}}}}, {"name": "StatefulPartitionedCall/model_1/tf.math.subtract/Sub", "op": "Sub", "input": ["unknown_182", "StatefulPartitionedCall/model_1/tf.cast/Cast"], "attr": {"T": {"type": "DT_FLOAT"}}}, {"name": "StatefulPartitionedCall/model_1/tf.math.subtract_1/Sub", "op": "Sub", "input": ["unknown_144", "StatefulPartitionedCall/model_1/tf.cast_1/Cast"], "attr": {"T": {"type": "DT_FLOAT"}}}, {"name": "StatefulPartitionedCall/model_1/concatenate_2/concat", "op": "ConcatV2", "input": ["StatefulPartitionedCall/model_1/activation_13/Relu6", "StatefulPartitionedCall/model_1/activation_14/Relu6", "StatefulPartitionedCall/model_1/activation_15/Relu6", "StatefulPartitionedCall/model_1/average_pooling2d_2/AvgPool", "StatefulPartitionedCall/model_1/concatenate_2/concat/axis"], "attr": {"T": {"type": "DT_FLOAT"}, "Tidx": {"type": "DT_INT32"}, "N": {"i": "4"}}}, {"name": "StatefulPartitionedCall/model_1/tf.concat/concat", "op": "ConcatV2", "input": ["StatefulPartitionedCall/model_1/tf.math.subtract/Sub", "StatefulPartitionedCall/model_1/tf.cast/Cast", "StatefulPartitionedCall/model_1/tf.concat/concat/axis"], "attr": {"Tidx": {"type": "DT_INT32"}, "N": {"i": "2"}, "T": {"type": "DT_FLOAT"}}}, {"name": "StatefulPartitionedCall/model_1/tf.concat_1/concat", "op": "ConcatV2", "input": ["StatefulPartitionedCall/model_1/tf.math.subtract_1/Sub", "StatefulPartitionedCall/model_1/tf.cast_1/Cast", "StatefulPartitionedCall/model_1/tf.concat_1/concat/axis"], "attr": {"N": {"i": "2"}, "T": {"type": "DT_FLOAT"}, "Tidx": {"type": "DT_INT32"}}}, {"name": "StatefulPartitionedCall/model_1/activation_16/Relu6", "op": "_FusedConv2D", "input": ["StatefulPartitionedCall/model_1/concatenate_2/concat", "StatefulPartitionedCall/model_1/conv2d_16/Conv2D_weights", "StatefulPartitionedCall/model_1/conv2d_16/Conv2D_bn_offset"], "device": "/device:CPU:0", "attr": {"padding": {"s": "U0FNRQ=="}, "fused_ops": {"list": {"s": ["Qmlhc0FkZA==", "UmVsdTY="]}}, "use_cudnn_on_gpu": {"b": true}, "explicit_paddings": {"list": {}}, "num_args": {"i": "1"}, "T": {"type": "DT_FLOAT"}, "epsilon": {"f": 0.0}, "leakyrelu_alpha": {"f": 0.2}, "strides": {"list": {"i": ["1", "1", "1", "1"]}}, "dilations": {"list": {"i": ["1", "1", "1", "1"]}}, "data_format": {"s": "TkhXQw=="}}}, {"name": "StatefulPartitionedCall/model_1/conv2d_33/BiasAdd", "op": "_FusedConv2D", "input": ["StatefulPartitionedCall/model_1/tf.concat_1/concat", "StatefulPartitionedCall/model_1/conv2d_33/Conv2D/ReadVariableOp", "StatefulPartitionedCall/model_1/conv2d_33/BiasAdd/ReadVariableOp"], "device": "/device:CPU:0", "attr": {"use_cudnn_on_gpu": {"b": true}, "fused_ops": {"list": {"s": ["Qmlhc0FkZA=="]}}, "leakyrelu_alpha": {"f": 0.2}, "dilations": {"list": {"i": ["1", "1", "1", "1"]}}, "T": {"type": "DT_FLOAT"}, "explicit_paddings": {"list": {}}, "epsilon": {"f": 0.0}, "data_format": {"s": "TkhXQw=="}, "num_args": {"i": "1"}, "strides": {"list": {"i": ["1", "1", "1", "1"]}}, "padding": {"s": "U0FNRQ=="}}}, {"name": "StatefulPartitionedCall/model_1/activation_18/Relu6", "op": "_FusedConv2D", "input": ["StatefulPartitionedCall/model_1/activation_16/Relu6", "StatefulPartitionedCall/model_1/conv2d_18/Conv2D_weights", "StatefulPartitionedCall/model_1/conv2d_18/Conv2D_bn_offset"], "device": "/device:CPU:0", "attr": {"epsilon": {"f": 0.0}, "use_cudnn_on_gpu": {"b": true}, "padding": {"s": "U0FNRQ=="}, "fused_ops": {"list": {"s": ["Qmlhc0FkZA==", "UmVsdTY="]}}, "dilations": {"list": {"i": ["1", "1", "1", "1"]}}, "leakyrelu_alpha": {"f": 0.2}, "data_format": {"s": "TkhXQw=="}, "explicit_paddings": {"list": {}}, "T": {"type": "DT_FLOAT"}, "num_args": {"i": "1"}, "strides": {"list": {"i": ["1", "1", "1", "1"]}}}}, {"name": "StatefulPartitionedCall/model_1/activation_19/Relu6", "op": "_FusedConv2D", "input": ["StatefulPartitionedCall/model_1/activation_16/Relu6", "StatefulPartitionedCall/model_1/conv2d_19/Conv2D_weights", "StatefulPartitionedCall/model_1/conv2d_19/Conv2D_bn_offset"], "device": "/device:CPU:0", "attr": {"fused_ops": {"list": {"s": ["Qmlhc0FkZA==", "UmVsdTY="]}}, "dilations": {"list": {"i": ["1", "1", "1", "1"]}}, "strides": {"list": {"i": ["1", "1", "1", "1"]}}, "use_cudnn_on_gpu": {"b": true}, "T": {"type": "DT_FLOAT"}, "epsilon": {"f": 0.0}, "padding": {"s": "U0FNRQ=="}, "data_format": {"s": "TkhXQw=="}, "explicit_paddings": {"list": {}}, "num_args": {"i": "1"}, "leakyrelu_alpha": {"f": 0.2}}}, {"name": "StatefulPartitionedCall/model_1/activation_20/Relu6", "op": "_FusedConv2D", "input": ["StatefulPartitionedCall/model_1/activation_16/Relu6", "StatefulPartitionedCall/model_1/conv2d_20/Conv2D_weights", "StatefulPartitionedCall/model_1/conv2d_20/Conv2D_bn_offset"], "device": "/device:CPU:0", "attr": {"strides": {"list": {"i": ["1", "1", "1", "1"]}}, "use_cudnn_on_gpu": {"b": true}, "data_format": {"s": "TkhXQw=="}, "explicit_paddings": {"list": {}}, "epsilon": {"f": 0.0}, "fused_ops": {"list": {"s": ["Qmlhc0FkZA==", "UmVsdTY="]}}, "leakyrelu_alpha": {"f": 0.2}, "padding": {"s": "U0FNRQ=="}, "T": {"type": "DT_FLOAT"}, "dilations": {"list": {"i": ["1", "1", "1", "1"]}}, "num_args": {"i": "1"}}}, {"name": "StatefulPartitionedCall/model_1/activation_17/Relu6", "op": "_FusedConv2D", "input": ["StatefulPartitionedCall/model_1/activation_16/Relu6", "StatefulPartitionedCall/model_1/conv2d_17/Conv2D_weights", "StatefulPartitionedCall/model_1/conv2d_17/Conv2D_bn_offset"], "device": "/device:CPU:0", "attr": {"T": {"type": "DT_FLOAT"}, "data_format": {"s": "TkhXQw=="}, "dilations": {"list": {"i": ["1", "1", "1", "1"]}}, "explicit_paddings": {"list": {}}, "leakyrelu_alpha": {"f": 0.2}, "strides": {"list": {"i": ["1", "1", "1", "1"]}}, "num_args": {"i": "1"}, "fused_ops": {"list": {"s": ["Qmlhc0FkZA==", "UmVsdTY="]}}, "use_cudnn_on_gpu": {"b": true}, "padding": {"s": "U0FNRQ=="}, "epsilon": {"f": 0.0}}}, {"name": "StatefulPartitionedCall/model_1/conv2d_34/BiasAdd", "op": "_FusedConv2D", "input": ["StatefulPartitionedCall/model_1/conv2d_33/BiasAdd", "StatefulPartitionedCall/model_1/conv2d_34/Conv2D/ReadVariableOp", "StatefulPartitionedCall/model_1/conv2d_34/BiasAdd/ReadVariableOp"], "device": "/device:CPU:0", "attr": {"T": {"type": "DT_FLOAT"}, "epsilon": {"f": 0.0}, "strides": {"list": {"i": ["1", "1", "1", "1"]}}, "dilations": {"list": {"i": ["1", "1", "1", "1"]}}, "num_args": {"i": "1"}, "data_format": {"s": "TkhXQw=="}, "explicit_paddings": {"list": {}}, "padding": {"s": "U0FNRQ=="}, "use_cudnn_on_gpu": {"b": true}, "leakyrelu_alpha": {"f": 0.2}, "fused_ops": {"list": {"s": ["Qmlhc0FkZA=="]}}}}, {"name": "StatefulPartitionedCall/model_1/average_pooling2d_3/AvgPool", "op": "AvgPool", "input": ["StatefulPartitionedCall/model_1/activation_17/Relu6"], "attr": {"T": {"type": "DT_FLOAT"}, "strides": {"list": {"i": ["1", "1", "1", "1"]}}, "data_format": {"s": "TkhXQw=="}, "padding": {"s": "U0FNRQ=="}, "ksize": {"list": {"i": ["1", "3", "3", "1"]}}}}, {"name": "StatefulPartitionedCall/model_1/conv2d_35/BiasAdd", "op": "_FusedConv2D", "input": ["StatefulPartitionedCall/model_1/conv2d_34/BiasAdd", "StatefulPartitionedCall/model_1/conv2d_35/Conv2D/ReadVariableOp", "StatefulPartitionedCall/model_1/conv2d_35/BiasAdd/ReadVariableOp"], "device": "/device:CPU:0", "attr": {"T": {"type": "DT_FLOAT"}, "fused_ops": {"list": {"s": ["Qmlhc0FkZA=="]}}, "leakyrelu_alpha": {"f": 0.2}, "epsilon": {"f": 0.0}, "strides": {"list": {"i": ["1", "1", "1", "1"]}}, "use_cudnn_on_gpu": {"b": true}, "dilations": {"list": {"i": ["1", "1", "1", "1"]}}, "data_format": {"s": "TkhXQw=="}, "explicit_paddings": {"list": {}}, "num_args": {"i": "1"}, "padding": {"s": "U0FNRQ=="}}}, {"name": "StatefulPartitionedCall/model_1/concatenate_3/concat", "op": "ConcatV2", "input": ["StatefulPartitionedCall/model_1/activation_18/Relu6", "StatefulPartitionedCall/model_1/activation_19/Relu6", "StatefulPartitionedCall/model_1/activation_20/Relu6", "StatefulPartitionedCall/model_1/average_pooling2d_3/AvgPool", "StatefulPartitionedCall/model_1/concatenate_3/concat/axis"], "attr": {"N": {"i": "4"}, "Tidx": {"type": "DT_INT32"}, "T": {"type": "DT_FLOAT"}}}, {"name": "StatefulPartitionedCall/model_1/conv2d_36/BiasAdd", "op": "_FusedConv2D", "input": ["StatefulPartitionedCall/model_1/conv2d_35/BiasAdd", "StatefulPartitionedCall/model_1/conv2d_36/Conv2D/ReadVariableOp", "StatefulPartitionedCall/model_1/conv2d_36/BiasAdd/ReadVariableOp"], "device": "/device:CPU:0", "attr": {"dilations": {"list": {"i": ["1", "1", "1", "1"]}}, "strides": {"list": {"i": ["1", "1", "1", "1"]}}, "explicit_paddings": {"list": {}}, "num_args": {"i": "1"}, "T": {"type": "DT_FLOAT"}, "padding": {"s": "U0FNRQ=="}, "fused_ops": {"list": {"s": ["Qmlhc0FkZA=="]}}, "use_cudnn_on_gpu": {"b": true}, "epsilon": {"f": 0.0}, "leakyrelu_alpha": {"f": 0.2}, "data_format": {"s": "TkhXQw=="}}}, {"name": "StatefulPartitionedCall/model_1/activation_21/Relu6", "op": "_FusedConv2D", "input": ["StatefulPartitionedCall/model_1/concatenate_3/concat", "StatefulPartitionedCall/model_1/conv2d_21/Conv2D_weights", "StatefulPartitionedCall/model_1/conv2d_21/Conv2D_bn_offset"], "device": "/device:CPU:0", "attr": {"num_args": {"i": "1"}, "dilations": {"list": {"i": ["1", "1", "1", "1"]}}, "leakyrelu_alpha": {"f": 0.2}, "padding": {"s": "U0FNRQ=="}, "explicit_paddings": {"list": {}}, "fused_ops": {"list": {"s": ["Qmlhc0FkZA==", "UmVsdTY="]}}, "T": {"type": "DT_FLOAT"}, "epsilon": {"f": 0.0}, "use_cudnn_on_gpu": {"b": true}, "strides": {"list": {"i": ["1", "1", "1", "1"]}}, "data_format": {"s": "TkhXQw=="}}}, {"name": "StatefulPartitionedCall/model_1/add/add", "op": "AddV2", "input": ["StatefulPartitionedCall/model_1/tf.concat_1/concat", "StatefulPartitionedCall/model_1/conv2d_36/BiasAdd"], "attr": {"T": {"type": "DT_FLOAT"}}}, {"name": "StatefulPartitionedCall/model_1/activation_23/Relu6", "op": "_FusedConv2D", "input": ["StatefulPartitionedCall/model_1/activation_21/Relu6", "StatefulPartitionedCall/model_1/conv2d_23/Conv2D_weights", "StatefulPartitionedCall/model_1/conv2d_23/Conv2D_bn_offset"], "device": "/device:CPU:0", "attr": {"fused_ops": {"list": {"s": ["Qmlhc0FkZA==", "UmVsdTY="]}}, "epsilon": {"f": 0.0}, "leakyrelu_alpha": {"f": 0.2}, "strides": {"list": {"i": ["1", "2", "2", "1"]}}, "use_cudnn_on_gpu": {"b": true}, "data_format": {"s": "TkhXQw=="}, "num_args": {"i": "1"}, "dilations": {"list": {"i": ["1", "1", "1", "1"]}}, "T": {"type": "DT_FLOAT"}, "padding": {"s": "U0FNRQ=="}, "explicit_paddings": {"list": {}}}}, {"name": "StatefulPartitionedCall/model_1/activation_24/Relu6", "op": "_FusedConv2D", "input": ["StatefulPartitionedCall/model_1/activation_21/Relu6", "StatefulPartitionedCall/model_1/conv2d_24/Conv2D_weights", "StatefulPartitionedCall/model_1/conv2d_24/Conv2D_bn_offset"], "device": "/device:CPU:0", "attr": {"explicit_paddings": {"list": {}}, "leakyrelu_alpha": {"f": 0.2}, "T": {"type": "DT_FLOAT"}, "epsilon": {"f": 0.0}, "dilations": {"list": {"i": ["1", "1", "1", "1"]}}, "data_format": {"s": "TkhXQw=="}, "fused_ops": {"list": {"s": ["Qmlhc0FkZA==", "UmVsdTY="]}}, "num_args": {"i": "1"}, "use_cudnn_on_gpu": {"b": true}, "strides": {"list": {"i": ["1", "2", "2", "1"]}}, "padding": {"s": "U0FNRQ=="}}}, {"name": "StatefulPartitionedCall/model_1/activation_25/Relu6", "op": "_FusedConv2D", "input": ["StatefulPartitionedCall/model_1/activation_21/Relu6", "StatefulPartitionedCall/model_1/conv2d_25/Conv2D_weights", "StatefulPartitionedCall/model_1/conv2d_25/Conv2D_bn_offset"], "device": "/device:CPU:0", "attr": {"strides": {"list": {"i": ["1", "2", "2", "1"]}}, "explicit_paddings": {"list": {}}, "data_format": {"s": "TkhXQw=="}, "num_args": {"i": "1"}, "epsilon": {"f": 0.0}, "T": {"type": "DT_FLOAT"}, "leakyrelu_alpha": {"f": 0.2}, "fused_ops": {"list": {"s": ["Qmlhc0FkZA==", "UmVsdTY="]}}, "use_cudnn_on_gpu": {"b": true}, "dilations": {"list": {"i": ["1", "1", "1", "1"]}}, "padding": {"s": "U0FNRQ=="}}}, {"name": "StatefulPartitionedCall/model_1/activation_22/Relu6", "op": "_FusedConv2D", "input": ["StatefulPartitionedCall/model_1/activation_21/Relu6", "StatefulPartitionedCall/model_1/conv2d_22/Conv2D_weights", "StatefulPartitionedCall/model_1/conv2d_22/Conv2D_bn_offset"], "device": "/device:CPU:0", "attr": {"dilations": {"list": {"i": ["1", "1", "1", "1"]}}, "strides": {"list": {"i": ["1", "1", "1", "1"]}}, "T": {"type": "DT_FLOAT"}, "fused_ops": {"list": {"s": ["Qmlhc0FkZA==", "UmVsdTY="]}}, "explicit_paddings": {"list": {}}, "data_format": {"s": "TkhXQw=="}, "num_args": {"i": "1"}, "padding": {"s": "U0FNRQ=="}, "leakyrelu_alpha": {"f": 0.2}, "use_cudnn_on_gpu": {"b": true}, "epsilon": {"f": 0.0}}}, {"name": "StatefulPartitionedCall/model_1/up_sampling2d/resize/ResizeBilinear", "op": "ResizeBilinear", "input": ["StatefulPartitionedCall/model_1/add/add", "StatefulPartitionedCall/model_1/up_sampling2d/mul"], "attr": {"half_pixel_centers": {"b": true}, "T": {"type": "DT_FLOAT"}, "align_corners": {"b": false}}}, {"name": "StatefulPartitionedCall/model_1/average_pooling2d_4/AvgPool", "op": "AvgPool", "input": ["StatefulPartitionedCall/model_1/activation_22/Relu6"], "attr": {"T": {"type": "DT_FLOAT"}, "data_format": {"s": "TkhXQw=="}, "strides": {"list": {"i": ["1", "2", "2", "1"]}}, "ksize": {"list": {"i": ["1", "3", "3", "1"]}}, "padding": {"s": "U0FNRQ=="}}}, {"name": "StatefulPartitionedCall/model_1/concatenate_6/concat", "op": "ConcatV2", "input": ["StatefulPartitionedCall/model_1/up_sampling2d/resize/ResizeBilinear", "StatefulPartitionedCall/model_1/tf.concat/concat", "StatefulPartitionedCall/model_1/concatenate_6/concat/axis"], "attr": {"N": {"i": "2"}, "T": {"type": "DT_FLOAT"}, "Tidx": {"type": "DT_INT32"}}}, {"name": "StatefulPartitionedCall/model_1/concatenate_4/concat", "op": "ConcatV2", "input": ["StatefulPartitionedCall/model_1/activation_23/Relu6", "StatefulPartitionedCall/model_1/activation_24/Relu6", "StatefulPartitionedCall/model_1/activation_25/Relu6", "StatefulPartitionedCall/model_1/average_pooling2d_4/AvgPool", "StatefulPartitionedCall/model_1/concatenate_4/concat/axis"], "attr": {"N": {"i": "4"}, "T": {"type": "DT_FLOAT"}, "Tidx": {"type": "DT_INT32"}}}, {"name": "StatefulPartitionedCall/model_1/conv2d_37/BiasAdd", "op": "_FusedConv2D", "input": ["StatefulPartitionedCall/model_1/concatenate_6/concat", "StatefulPartitionedCall/model_1/conv2d_37/Conv2D/ReadVariableOp", "StatefulPartitionedCall/model_1/conv2d_37/BiasAdd/ReadVariableOp"], "device": "/device:CPU:0", "attr": {"padding": {"s": "U0FNRQ=="}, "epsilon": {"f": 0.0}, "T": {"type": "DT_FLOAT"}, "dilations": {"list": {"i": ["1", "1", "1", "1"]}}, "leakyrelu_alpha": {"f": 0.2}, "data_format": {"s": "TkhXQw=="}, "strides": {"list": {"i": ["1", "1", "1", "1"]}}, "num_args": {"i": "1"}, "explicit_paddings": {"list": {}}, "fused_ops": {"list": {"s": ["Qmlhc0FkZA=="]}}, "use_cudnn_on_gpu": {"b": true}}}, {"name": "StatefulPartitionedCall/model_1/activation_26/Relu6", "op": "_FusedConv2D", "input": ["StatefulPartitionedCall/model_1/concatenate_4/concat", "StatefulPartitionedCall/model_1/conv2d_26/Conv2D_weights", "StatefulPartitionedCall/model_1/conv2d_26/Conv2D_bn_offset"], "device": "/device:CPU:0", "attr": {"strides": {"list": {"i": ["1", "1", "1", "1"]}}, "fused_ops": {"list": {"s": ["Qmlhc0FkZA==", "UmVsdTY="]}}, "explicit_paddings": {"list": {}}, "use_cudnn_on_gpu": {"b": true}, "leakyrelu_alpha": {"f": 0.2}, "data_format": {"s": "TkhXQw=="}, "T": {"type": "DT_FLOAT"}, "num_args": {"i": "1"}, "dilations": {"list": {"i": ["1", "1", "1", "1"]}}, "epsilon": {"f": 0.0}, "padding": {"s": "U0FNRQ=="}}}, {"name": "StatefulPartitionedCall/model_1/conv2d_38/BiasAdd", "op": "_FusedConv2D", "input": ["StatefulPartitionedCall/model_1/conv2d_37/BiasAdd", "StatefulPartitionedCall/model_1/conv2d_38/Conv2D/ReadVariableOp", "StatefulPartitionedCall/model_1/conv2d_38/BiasAdd/ReadVariableOp"], "device": "/device:CPU:0", "attr": {"padding": {"s": "U0FNRQ=="}, "epsilon": {"f": 0.0}, "data_format": {"s": "TkhXQw=="}, "dilations": {"list": {"i": ["1", "1", "1", "1"]}}, "T": {"type": "DT_FLOAT"}, "num_args": {"i": "1"}, "fused_ops": {"list": {"s": ["Qmlhc0FkZA=="]}}, "strides": {"list": {"i": ["1", "1", "1", "1"]}}, "explicit_paddings": {"list": {}}, "leakyrelu_alpha": {"f": 0.2}, "use_cudnn_on_gpu": {"b": true}}}, {"name": "StatefulPartitionedCall/model_1/activation_28/Relu6", "op": "_FusedConv2D", "input": ["StatefulPartitionedCall/model_1/activation_26/Relu6", "StatefulPartitionedCall/model_1/conv2d_28/Conv2D_weights", "StatefulPartitionedCall/model_1/conv2d_28/Conv2D_bn_offset"], "device": "/device:CPU:0", "attr": {"dilations": {"list": {"i": ["1", "1", "1", "1"]}}, "strides": {"list": {"i": ["1", "1", "1", "1"]}}, "padding": {"s": "U0FNRQ=="}, "num_args": {"i": "1"}, "T": {"type": "DT_FLOAT"}, "leakyrelu_alpha": {"f": 0.2}, "data_format": {"s": "TkhXQw=="}, "fused_ops": {"list": {"s": ["Qmlhc0FkZA==", "UmVsdTY="]}}, "use_cudnn_on_gpu": {"b": true}, "explicit_paddings": {"list": {}}, "epsilon": {"f": 0.0}}}, {"name": "StatefulPartitionedCall/model_1/activation_29/Relu6", "op": "_FusedConv2D", "input": ["StatefulPartitionedCall/model_1/activation_26/Relu6", "StatefulPartitionedCall/model_1/conv2d_29/Conv2D_weights", "StatefulPartitionedCall/model_1/conv2d_29/Conv2D_bn_offset"], "device": "/device:CPU:0", "attr": {"explicit_paddings": {"list": {}}, "fused_ops": {"list": {"s": ["Qmlhc0FkZA==", "UmVsdTY="]}}, "epsilon": {"f": 0.0}, "strides": {"list": {"i": ["1", "1", "1", "1"]}}, "data_format": {"s": "TkhXQw=="}, "leakyrelu_alpha": {"f": 0.2}, "T": {"type": "DT_FLOAT"}, "dilations": {"list": {"i": ["1", "1", "1", "1"]}}, "num_args": {"i": "1"}, "use_cudnn_on_gpu": {"b": true}, "padding": {"s": "U0FNRQ=="}}}, {"name": "StatefulPartitionedCall/model_1/activation_30/Relu6", "op": "_FusedConv2D", "input": ["StatefulPartitionedCall/model_1/activation_26/Relu6", "StatefulPartitionedCall/model_1/conv2d_30/Conv2D_weights", "StatefulPartitionedCall/model_1/conv2d_30/Conv2D_bn_offset"], "device": "/device:CPU:0", "attr": {"padding": {"s": "U0FNRQ=="}, "num_args": {"i": "1"}, "T": {"type": "DT_FLOAT"}, "epsilon": {"f": 0.0}, "leakyrelu_alpha": {"f": 0.2}, "dilations": {"list": {"i": ["1", "1", "1", "1"]}}, "data_format": {"s": "TkhXQw=="}, "strides": {"list": {"i": ["1", "1", "1", "1"]}}, "use_cudnn_on_gpu": {"b": true}, "explicit_paddings": {"list": {}}, "fused_ops": {"list": {"s": ["Qmlhc0FkZA==", "UmVsdTY="]}}}}, {"name": "StatefulPartitionedCall/model_1/activation_27/Relu6", "op": "_FusedConv2D", "input": ["StatefulPartitionedCall/model_1/activation_26/Relu6", "StatefulPartitionedCall/model_1/conv2d_27/Conv2D_weights", "StatefulPartitionedCall/model_1/conv2d_27/Conv2D_bn_offset"], "device": "/device:CPU:0", "attr": {"epsilon": {"f": 0.0}, "T": {"type": "DT_FLOAT"}, "use_cudnn_on_gpu": {"b": true}, "strides": {"list": {"i": ["1", "1", "1", "1"]}}, "leakyrelu_alpha": {"f": 0.2}, "padding": {"s": "U0FNRQ=="}, "num_args": {"i": "1"}, "dilations": {"list": {"i": ["1", "1", "1", "1"]}}, "data_format": {"s": "TkhXQw=="}, "fused_ops": {"list": {"s": ["Qmlhc0FkZA==", "UmVsdTY="]}}, "explicit_paddings": {"list": {}}}}, {"name": "StatefulPartitionedCall/model_1/conv2d_39/BiasAdd", "op": "_FusedConv2D", "input": ["StatefulPartitionedCall/model_1/conv2d_38/BiasAdd", "StatefulPartitionedCall/model_1/conv2d_39/Conv2D/ReadVariableOp", "StatefulPartitionedCall/model_1/conv2d_39/BiasAdd/ReadVariableOp"], "device": "/device:CPU:0", "attr": {"T": {"type": "DT_FLOAT"}, "padding": {"s": "U0FNRQ=="}, "num_args": {"i": "1"}, "epsilon": {"f": 0.0}, "fused_ops": {"list": {"s": ["Qmlhc0FkZA=="]}}, "strides": {"list": {"i": ["1", "1", "1", "1"]}}, "dilations": {"list": {"i": ["1", "1", "1", "1"]}}, "data_format": {"s": "TkhXQw=="}, "leakyrelu_alpha": {"f": 0.2}, "use_cudnn_on_gpu": {"b": true}, "explicit_paddings": {"list": {}}}}, {"name": "StatefulPartitionedCall/model_1/average_pooling2d_5/AvgPool", "op": "AvgPool", "input": ["StatefulPartitionedCall/model_1/activation_27/Relu6"], "attr": {"data_format": {"s": "TkhXQw=="}, "strides": {"list": {"i": ["1", "1", "1", "1"]}}, "ksize": {"list": {"i": ["1", "3", "3", "1"]}}, "T": {"type": "DT_FLOAT"}, "padding": {"s": "U0FNRQ=="}}}, {"name": "StatefulPartitionedCall/model_1/add_1/add", "op": "AddV2", "input": ["StatefulPartitionedCall/model_1/tf.concat/concat", "StatefulPartitionedCall/model_1/conv2d_39/BiasAdd"], "attr": {"T": {"type": "DT_FLOAT"}}}, {"name": "StatefulPartitionedCall/model_1/concatenate_5/concat", "op": "ConcatV2", "input": ["StatefulPartitionedCall/model_1/activation_28/Relu6", "StatefulPartitionedCall/model_1/activation_29/Relu6", "StatefulPartitionedCall/model_1/activation_30/Relu6", "StatefulPartitionedCall/model_1/average_pooling2d_5/AvgPool", "StatefulPartitionedCall/model_1/concatenate_5/concat/axis"], "attr": {"Tidx": {"type": "DT_INT32"}, "N": {"i": "4"}, "T": {"type": "DT_FLOAT"}}}, {"name": "StatefulPartitionedCall/model_1/resizing_2/resize/ResizeBilinear", "op": "ResizeBilinear", "input": ["StatefulPartitionedCall/model_1/add_1/add", "StatefulPartitionedCall/model_1/resizing_2/resize/size"], "attr": {"T": {"type": "DT_FLOAT"}, "align_corners": {"b": false}, "half_pixel_centers": {"b": true}}}, {"name": "StatefulPartitionedCall/model_1/activation_31/Relu6", "op": "_FusedConv2D", "input": ["StatefulPartitionedCall/model_1/concatenate_5/concat", "StatefulPartitionedCall/model_1/conv2d_31/Conv2D_weights", "StatefulPartitionedCall/model_1/conv2d_31/Conv2D_bn_offset"], "device": "/device:CPU:0", "attr": {"epsilon": {"f": 0.0}, "leakyrelu_alpha": {"f": 0.2}, "dilations": {"list": {"i": ["1", "1", "1", "1"]}}, "padding": {"s": "U0FNRQ=="}, "num_args": {"i": "1"}, "T": {"type": "DT_FLOAT"}, "data_format": {"s": "TkhXQw=="}, "fused_ops": {"list": {"s": ["Qmlhc0FkZA==", "UmVsdTY="]}}, "explicit_paddings": {"list": {}}, "use_cudnn_on_gpu": {"b": true}, "strides": {"list": {"i": ["1", "1", "1", "1"]}}}}, {"name": "StatefulPartitionedCall/model_1/concatenate_8/concat", "op": "ConcatV2", "input": ["StatefulPartitionedCall/model_1/activation_21/Relu6", "StatefulPartitionedCall/model_1/resizing_2/resize/ResizeBilinear", "StatefulPartitionedCall/model_1/add/add", "StatefulPartitionedCall/model_1/concatenate_8/concat/axis"], "attr": {"N": {"i": "3"}, "Tidx": {"type": "DT_INT32"}, "T": {"type": "DT_FLOAT"}}}, {"name": "StatefulPartitionedCall/model_1/activation_36/Relu", "op": "_FusedConv2D", "input": ["StatefulPartitionedCall/model_1/activation_31/Relu6", "StatefulPartitionedCall/model_1/conv2d_43/Conv2D_weights", "StatefulPartitionedCall/model_1/conv2d_43/Conv2D_bn_offset"], "device": "/device:CPU:0", "attr": {"T": {"type": "DT_FLOAT"}, "leakyrelu_alpha": {"f": 0.2}, "epsilon": {"f": 0.0}, "explicit_paddings": {"list": {}}, "padding": {"s": "U0FNRQ=="}, "fused_ops": {"list": {"s": ["Qmlhc0FkZA==", "UmVsdQ=="]}}, "dilations": {"list": {"i": ["1", "1", "1", "1"]}}, "data_format": {"s": "TkhXQw=="}, "use_cudnn_on_gpu": {"b": true}, "strides": {"list": {"i": ["1", "1", "1", "1"]}}, "num_args": {"i": "1"}}}, {"name": "StatefulPartitionedCall/model_1/activation_33/Relu", "op": "_FusedConv2D", "input": ["StatefulPartitionedCall/model_1/concatenate_8/concat", "StatefulPartitionedCall/model_1/conv2d_40/Conv2D_weights", "StatefulPartitionedCall/model_1/conv2d_40/Conv2D_bn_offset"], "device": "/device:CPU:0", "attr": {"T": {"type": "DT_FLOAT"}, "strides": {"list": {"i": ["1", "1", "1", "1"]}}, "num_args": {"i": "1"}, "use_cudnn_on_gpu": {"b": true}, "fused_ops": {"list": {"s": ["Qmlhc0FkZA==", "UmVsdQ=="]}}, "dilations": {"list": {"i": ["1", "1", "1", "1"]}}, "data_format": {"s": "TkhXQw=="}, "padding": {"s": "U0FNRQ=="}, "epsilon": {"f": 0.0}, "explicit_paddings": {"list": {}}, "leakyrelu_alpha": {"f": 0.2}}}, {"name": "StatefulPartitionedCall/model_1/average_pooling2d_8/AvgPool", "op": "AvgPool", "input": ["StatefulPartitionedCall/model_1/activation_36/Relu"], "attr": {"T": {"type": "DT_FLOAT"}, "ksize": {"list": {"i": ["1", "14", "1", "1"]}}, "strides": {"list": {"i": ["1", "1", "1", "1"]}}, "padding": {"s": "VkFMSUQ="}, "data_format": {"s": "TkhXQw=="}}}, {"name": "StatefulPartitionedCall/model_1/average_pooling2d_9/AvgPool", "op": "AvgPool", "input": ["StatefulPartitionedCall/model_1/activation_36/Relu"], "attr": {"data_format": {"s": "TkhXQw=="}, "padding": {"s": "VkFMSUQ="}, "strides": {"list": {"i": ["1", "1", "1", "1"]}}, "ksize": {"list": {"i": ["1", "1", "8", "1"]}}, "T": {"type": "DT_FLOAT"}}}, {"name": "StatefulPartitionedCall/model_1/average_pooling2d_6/AvgPool", "op": "AvgPool", "input": ["StatefulPartitionedCall/model_1/activation_33/Relu"], "attr": {"T": {"type": "DT_FLOAT"}, "strides": {"list": {"i": ["1", "1", "1", "1"]}}, "ksize": {"list": {"i": ["1", "28", "1", "1"]}}, "padding": {"s": "VkFMSUQ="}, "data_format": {"s": "TkhXQw=="}}}, {"name": "StatefulPartitionedCall/model_1/average_pooling2d_7/AvgPool", "op": "AvgPool", "input": ["StatefulPartitionedCall/model_1/activation_33/Relu"], "attr": {"T": {"type": "DT_FLOAT"}, "ksize": {"list": {"i": ["1", "1", "16", "1"]}}, "padding": {"s": "VkFMSUQ="}, "data_format": {"s": "TkhXQw=="}, "strides": {"list": {"i": ["1", "1", "1", "1"]}}}}, {"name": "StatefulPartitionedCall/model_1/batch_normalization_37/FusedBatchNormV3", "op": "_FusedConv2D", "input": ["StatefulPartitionedCall/model_1/average_pooling2d_8/AvgPool", "StatefulPartitionedCall/model_1/conv2d_44/Conv2D_weights", "StatefulPartitionedCall/model_1/conv2d_44/Conv2D_bn_offset"], "device": "/device:CPU:0", "attr": {"T": {"type": "DT_FLOAT"}, "fused_ops": {"list": {"s": ["Qmlhc0FkZA=="]}}, "padding": {"s": "U0FNRQ=="}, "dilations": {"list": {"i": ["1", "1", "1", "1"]}}, "strides": {"list": {"i": ["1", "1", "1", "1"]}}, "leakyrelu_alpha": {"f": 0.2}, "explicit_paddings": {"list": {}}, "epsilon": {"f": 0.0}, "data_format": {"s": "TkhXQw=="}, "num_args": {"i": "1"}, "use_cudnn_on_gpu": {"b": true}}}, {"name": "StatefulPartitionedCall/model_1/batch_normalization_38/FusedBatchNormV3", "op": "_FusedConv2D", "input": ["StatefulPartitionedCall/model_1/average_pooling2d_9/AvgPool", "StatefulPartitionedCall/model_1/conv2d_45/Conv2D_weights", "StatefulPartitionedCall/model_1/conv2d_45/Conv2D_bn_offset"], "device": "/device:CPU:0", "attr": {"explicit_paddings": {"list": {}}, "use_cudnn_on_gpu": {"b": true}, "data_format": {"s": "TkhXQw=="}, "leakyrelu_alpha": {"f": 0.2}, "fused_ops": {"list": {"s": ["Qmlhc0FkZA=="]}}, "num_args": {"i": "1"}, "strides": {"list": {"i": ["1", "1", "1", "1"]}}, "dilations": {"list": {"i": ["1", "1", "1", "1"]}}, "T": {"type": "DT_FLOAT"}, "epsilon": {"f": 0.0}, "padding": {"s": "U0FNRQ=="}}}, {"name": "StatefulPartitionedCall/model_1/batch_normalization_34/FusedBatchNormV3", "op": "_FusedConv2D", "input": ["StatefulPartitionedCall/model_1/average_pooling2d_6/AvgPool", "StatefulPartitionedCall/model_1/conv2d_41/Conv2D_weights", "StatefulPartitionedCall/model_1/conv2d_41/Conv2D_bn_offset"], "device": "/device:CPU:0", "attr": {"leakyrelu_alpha": {"f": 0.2}, "num_args": {"i": "1"}, "dilations": {"list": {"i": ["1", "1", "1", "1"]}}, "explicit_paddings": {"list": {}}, "use_cudnn_on_gpu": {"b": true}, "T": {"type": "DT_FLOAT"}, "padding": {"s": "U0FNRQ=="}, "fused_ops": {"list": {"s": ["Qmlhc0FkZA=="]}}, "data_format": {"s": "TkhXQw=="}, "strides": {"list": {"i": ["1", "1", "1", "1"]}}, "epsilon": {"f": 0.0}}}, {"name": "StatefulPartitionedCall/model_1/batch_normalization_35/FusedBatchNormV3", "op": "_FusedConv2D", "input": ["StatefulPartitionedCall/model_1/average_pooling2d_7/AvgPool", "StatefulPartitionedCall/model_1/conv2d_42/Conv2D_weights", "StatefulPartitionedCall/model_1/conv2d_42/Conv2D_bn_offset"], "device": "/device:CPU:0", "attr": {"leakyrelu_alpha": {"f": 0.2}, "num_args": {"i": "1"}, "fused_ops": {"list": {"s": ["Qmlhc0FkZA=="]}}, "padding": {"s": "U0FNRQ=="}, "dilations": {"list": {"i": ["1", "1", "1", "1"]}}, "use_cudnn_on_gpu": {"b": true}, "data_format": {"s": "TkhXQw=="}, "T": {"type": "DT_FLOAT"}, "epsilon": {"f": 0.0}, "explicit_paddings": {"list": {}}, "strides": {"list": {"i": ["1", "1", "1", "1"]}}}}, {"name": "StatefulPartitionedCall/model_1/activation_37/Sigmoid", "op": "Sigmoid", "input": ["StatefulPartitionedCall/model_1/batch_normalization_37/FusedBatchNormV3"], "attr": {"T": {"type": "DT_FLOAT"}}}, {"name": "StatefulPartitionedCall/model_1/activation_38/Sigmoid", "op": "Sigmoid", "input": ["StatefulPartitionedCall/model_1/batch_normalization_38/FusedBatchNormV3"], "attr": {"T": {"type": "DT_FLOAT"}}}, {"name": "StatefulPartitionedCall/model_1/activation_34/Sigmoid", "op": "Sigmoid", "input": ["StatefulPartitionedCall/model_1/batch_normalization_34/FusedBatchNormV3"], "attr": {"T": {"type": "DT_FLOAT"}}}, {"name": "StatefulPartitionedCall/model_1/activation_35/Sigmoid", "op": "Sigmoid", "input": ["StatefulPartitionedCall/model_1/batch_normalization_35/FusedBatchNormV3"], "attr": {"T": {"type": "DT_FLOAT"}}}, {"name": "StatefulPartitionedCall/model_1/multiply_1/mul", "op": "Mul", "input": ["StatefulPartitionedCall/model_1/activation_36/Relu", "StatefulPartitionedCall/model_1/activation_37/Sigmoid"], "attr": {"T": {"type": "DT_FLOAT"}}}, {"name": "StatefulPartitionedCall/model_1/multiply/mul", "op": "Mul", "input": ["StatefulPartitionedCall/model_1/activation_34/Sigmoid", "StatefulPartitionedCall/model_1/activation_35/Sigmoid"], "attr": {"_grappler_ArithmeticOptimizer_MinimizeBroadcasts": {"b": true}, "T": {"type": "DT_FLOAT"}}}, {"name": "StatefulPartitionedCall/model_1/multiply_1/mul_1", "op": "Mul", "input": ["StatefulPartitionedCall/model_1/multiply_1/mul", "StatefulPartitionedCall/model_1/activation_38/Sigmoid"], "attr": {"T": {"type": "DT_FLOAT"}}}, {"name": "StatefulPartitionedCall/model_1/multiply/mul_1", "op": "Mul", "input": ["StatefulPartitionedCall/model_1/multiply/mul", "StatefulPartitionedCall/model_1/activation_33/Relu"], "attr": {"_grappler_ArithmeticOptimizer_MinimizeBroadcasts": {"b": true}, "T": {"type": "DT_FLOAT"}}}, {"name": "StatefulPartitionedCall/model_1/up_sampling2d_2/resize/ResizeBilinear", "op": "ResizeBilinear", "input": ["StatefulPartitionedCall/model_1/multiply_1/mul_1", "StatefulPartitionedCall/model_1/up_sampling2d_2/mul"], "attr": {"T": {"type": "DT_FLOAT"}, "half_pixel_centers": {"b": true}, "align_corners": {"b": false}}}, {"name": "StatefulPartitionedCall/model_1/up_sampling2d_1/resize/ResizeBilinear", "op": "ResizeBilinear", "input": ["StatefulPartitionedCall/model_1/multiply/mul_1", "StatefulPartitionedCall/model_1/up_sampling2d_1/mul"], "attr": {"half_pixel_centers": {"b": true}, "align_corners": {"b": false}, "T": {"type": "DT_FLOAT"}}}, {"name": "StatefulPartitionedCall/model_1/concatenate_10/concat", "op": "ConcatV2", "input": ["StatefulPartitionedCall/model_1/activation_11/Relu6", "StatefulPartitionedCall/model_1/up_sampling2d_1/resize/ResizeBilinear", "StatefulPartitionedCall/model_1/up_sampling2d_2/resize/ResizeBilinear", "StatefulPartitionedCall/model_1/concatenate_10/concat/axis"], "attr": {"T": {"type": "DT_FLOAT"}, "Tidx": {"type": "DT_INT32"}, "N": {"i": "3"}}}, {"name": "StatefulPartitionedCall/model_1/activation_39/Relu", "op": "_FusedConv2D", "input": ["StatefulPartitionedCall/model_1/concatenate_10/concat", "StatefulPartitionedCall/model_1/conv2d_46/Conv2D_weights", "StatefulPartitionedCall/model_1/conv2d_46/Conv2D_bn_offset"], "device": "/device:CPU:0", "attr": {"T": {"type": "DT_FLOAT"}, "epsilon": {"f": 0.0}, "explicit_paddings": {"list": {}}, "padding": {"s": "U0FNRQ=="}, "data_format": {"s": "TkhXQw=="}, "strides": {"list": {"i": ["1", "1", "1", "1"]}}, "use_cudnn_on_gpu": {"b": true}, "num_args": {"i": "1"}, "dilations": {"list": {"i": ["1", "1", "1", "1"]}}, "fused_ops": {"list": {"s": ["Qmlhc0FkZA==", "UmVsdQ=="]}}, "leakyrelu_alpha": {"f": 0.2}}}, {"name": "StatefulPartitionedCall/model_1/H_avg_pool/AvgPool", "op": "AvgPool", "input": ["StatefulPartitionedCall/model_1/activation_39/Relu"], "attr": {"padding": {"s": "VkFMSUQ="}, "ksize": {"list": {"i": ["1", "56", "1", "1"]}}, "T": {"type": "DT_FLOAT"}, "data_format": {"s": "TkhXQw=="}, "strides": {"list": {"i": ["1", "1", "1", "1"]}}}}, {"name": "StatefulPartitionedCall/model_1/W_avg_pool/AvgPool", "op": "AvgPool", "input": ["StatefulPartitionedCall/model_1/activation_39/Relu"], "attr": {"data_format": {"s": "TkhXQw=="}, "strides": {"list": {"i": ["1", "1", "1", "1"]}}, "padding": {"s": "VkFMSUQ="}, "T": {"type": "DT_FLOAT"}, "ksize": {"list": {"i": ["1", "1", "32", "1"]}}}}, {"name": "StatefulPartitionedCall/model_1/reshape/Reshape", "op": "Reshape", "input": ["StatefulPartitionedCall/model_1/W_avg_pool/AvgPool", "StatefulPartitionedCall/model_1/reshape/Reshape/shape"], "attr": {"Tshape": {"type": "DT_INT32"}, "T": {"type": "DT_FLOAT"}}}, {"name": "StatefulPartitionedCall/model_1/concatanate/concat", "op": "ConcatV2", "input": ["StatefulPartitionedCall/model_1/H_avg_pool/AvgPool", "StatefulPartitionedCall/model_1/reshape/Reshape", "StatefulPartitionedCall/model_1/concatanate/concat/axis"], "attr": {"Tidx": {"type": "DT_INT32"}, "T": {"type": "DT_FLOAT"}, "N": {"i": "2"}}}, {"name": "StatefulPartitionedCall/model_1/conv2d_47/Conv2D", "op": "Conv2D", "input": ["StatefulPartitionedCall/model_1/concatanate/concat", "StatefulPartitionedCall/model_1/conv2d_47/Conv2D/ReadVariableOp"], "device": "/device:CPU:0", "attr": {"dilations": {"list": {"i": ["1", "1", "1", "1"]}}, "padding": {"s": "U0FNRQ=="}, "explicit_paddings": {"list": {}}, "use_cudnn_on_gpu": {"b": true}, "data_format": {"s": "TkhXQw=="}, "T": {"type": "DT_FLOAT"}, "strides": {"list": {"i": ["1", "1", "1", "1"]}}}}, {"name": "StatefulPartitionedCall/model_1/conv1x1Out/Relu", "op": "Relu", "input": ["StatefulPartitionedCall/model_1/conv2d_47/Conv2D"], "attr": {"T": {"type": "DT_FLOAT"}}}, {"name": "StatefulPartitionedCall/model_1/conv2d_48/Conv2D", "op": "Conv2D", "input": ["StatefulPartitionedCall/model_1/conv1x1Out/Relu", "StatefulPartitionedCall/model_1/conv2d_48/Conv2D/ReadVariableOp"], "device": "/device:CPU:0", "attr": {"padding": {"s": "U0FNRQ=="}, "dilations": {"list": {"i": ["1", "1", "1", "1"]}}, "explicit_paddings": {"list": {}}, "T": {"type": "DT_FLOAT"}, "use_cudnn_on_gpu": {"b": true}, "data_format": {"s": "TkhXQw=="}, "strides": {"list": {"i": ["1", "1", "1", "1"]}}}}, {"name": "StatefulPartitionedCall/model_1/conv2d_49/Conv2D", "op": "Conv2D", "input": ["StatefulPartitionedCall/model_1/conv1x1Out/Relu", "StatefulPartitionedCall/model_1/conv2d_49/Conv2D/ReadVariableOp"], "device": "/device:CPU:0", "attr": {"explicit_paddings": {"list": {}}, "data_format": {"s": "TkhXQw=="}, "padding": {"s": "U0FNRQ=="}, "dilations": {"list": {"i": ["1", "1", "1", "1"]}}, "strides": {"list": {"i": ["1", "1", "1", "1"]}}, "use_cudnn_on_gpu": {"b": true}, "T": {"type": "DT_FLOAT"}}}, {"name": "StatefulPartitionedCall/model_1/tf.__operators__.getitem_6/strided_slice", "op": "StridedSlice", "input": ["StatefulPartitionedCall/model_1/conv2d_48/Conv2D", "StatefulPartitionedCall/model_1/tf.__operators__.getitem_6/strided_slice/stack", "StatefulPartitionedCall/model_1/tf.__operators__.getitem_6/strided_slice/stack_1", "StatefulPartitionedCall/model_1/tf.__operators__.getitem_6/strided_slice/stack_2"], "attr": {"shrink_axis_mask": {"i": "0"}, "T": {"type": "DT_FLOAT"}, "ellipsis_mask": {"i": "0"}, "end_mask": {"i": "11"}, "begin_mask": {"i": "15"}, "new_axis_mask": {"i": "0"}, "Index": {"type": "DT_INT32"}}}, {"name": "StatefulPartitionedCall/model_1/tf.__operators__.getitem_7/strided_slice", "op": "StridedSlice", "input": ["StatefulPartitionedCall/model_1/conv2d_49/Conv2D", "StatefulPartitionedCall/model_1/tf.__operators__.getitem_7/strided_slice/stack", "StatefulPartitionedCall/model_1/tf.__operators__.getitem_7/strided_slice/stack_1", "StatefulPartitionedCall/model_1/tf.__operators__.getitem_7/strided_slice/stack_2"], "attr": {"begin_mask": {"i": "11"}, "new_axis_mask": {"i": "0"}, "end_mask": {"i": "15"}, "T": {"type": "DT_FLOAT"}, "Index": {"type": "DT_INT32"}, "shrink_axis_mask": {"i": "0"}, "ellipsis_mask": {"i": "0"}}}, {"name": "StatefulPartitionedCall/model_1/activation_40/Sigmoid", "op": "Sigmoid", "input": ["StatefulPartitionedCall/model_1/tf.__operators__.getitem_6/strided_slice"], "attr": {"T": {"type": "DT_FLOAT"}}}, {"name": "StatefulPartitionedCall/model_1/activation_41/Sigmoid", "op": "Sigmoid", "input": ["StatefulPartitionedCall/model_1/tf.__operators__.getitem_7/strided_slice"], "attr": {"T": {"type": "DT_FLOAT"}}}, {"name": "StatefulPartitionedCall/model_1/reshape_1/Reshape", "op": "Reshape", "input": ["StatefulPartitionedCall/model_1/activation_40/Sigmoid", "StatefulPartitionedCall/model_1/reshape_1/Reshape/shape"], "attr": {"Tshape": {"type": "DT_INT32"}, "T": {"type": "DT_FLOAT"}}}, {"name": "StatefulPartitionedCall/model_1/multiply_2/mul", "op": "Mul", "input": ["StatefulPartitionedCall/model_1/activation_41/Sigmoid", "StatefulPartitionedCall/model_1/reshape_1/Reshape"], "attr": {"_grappler_ArithmeticOptimizer_MinimizeBroadcasts": {"b": true}, "T": {"type": "DT_FLOAT"}}}, {"name": "StatefulPartitionedCall/model_1/multiply_2/mul_1", "op": "Mul", "input": ["StatefulPartitionedCall/model_1/multiply_2/mul", "StatefulPartitionedCall/model_1/activation_39/Relu"], "attr": {"_grappler_ArithmeticOptimizer_MinimizeBroadcasts": {"b": true}, "T": {"type": "DT_FLOAT"}}}, {"name": "StatefulPartitionedCall/model_1/add_2/add", "op": "AddV2", "input": ["StatefulPartitionedCall/model_1/activation_39/Relu", "StatefulPartitionedCall/model_1/multiply_2/mul_1"], "attr": {"T": {"type": "DT_FLOAT"}}}, {"name": "StatefulPartitionedCall/model_1/activation_42/Relu6", "op": "_FusedConv2D", "input": ["StatefulPartitionedCall/model_1/add_2/add", "StatefulPartitionedCall/model_1/conv2d_50/Conv2D_weights", "StatefulPartitionedCall/model_1/conv2d_50/Conv2D_bn_offset"], "device": "/device:CPU:0", "attr": {"explicit_paddings": {"list": {}}, "data_format": {"s": "TkhXQw=="}, "leakyrelu_alpha": {"f": 0.2}, "num_args": {"i": "1"}, "padding": {"s": "U0FNRQ=="}, "strides": {"list": {"i": ["1", "1", "1", "1"]}}, "fused_ops": {"list": {"s": ["Qmlhc0FkZA==", "UmVsdTY="]}}, "use_cudnn_on_gpu": {"b": true}, "epsilon": {"f": 0.0}, "T": {"type": "DT_FLOAT"}, "dilations": {"list": {"i": ["1", "1", "1", "1"]}}}}, {"name": "StatefulPartitionedCall/model_1/activation_43/Relu6", "op": "_FusedConv2D", "input": ["StatefulPartitionedCall/model_1/activation_42/Relu6", "StatefulPartitionedCall/model_1/conv2d_51/Conv2D_weights", "StatefulPartitionedCall/model_1/conv2d_51/Conv2D_bn_offset"], "device": "/device:CPU:0", "attr": {"strides": {"list": {"i": ["1", "1", "1", "1"]}}, "leakyrelu_alpha": {"f": 0.2}, "data_format": {"s": "TkhXQw=="}, "padding": {"s": "U0FNRQ=="}, "use_cudnn_on_gpu": {"b": true}, "epsilon": {"f": 0.0}, "dilations": {"list": {"i": ["1", "1", "1", "1"]}}, "fused_ops": {"list": {"s": ["Qmlhc0FkZA==", "UmVsdTY="]}}, "T": {"type": "DT_FLOAT"}, "explicit_paddings": {"list": {}}, "num_args": {"i": "1"}}}, {"name": "StatefulPartitionedCall/model_1/up_sampling2d_3/resize/ResizeBilinear", "op": "ResizeBilinear", "input": ["StatefulPartitionedCall/model_1/activation_43/Relu6", "StatefulPartitionedCall/model_1/up_sampling2d_3/mul"], "attr": {"T": {"type": "DT_FLOAT"}, "half_pixel_centers": {"b": true}, "align_corners": {"b": false}}}, {"name": "StatefulPartitionedCall/model_1/SegHead_main/Softmax", "op": "Softmax", "input": ["StatefulPartitionedCall/model_1/up_sampling2d_3/resize/ResizeBilinear"], "attr": {"T": {"type": "DT_FLOAT"}}}, {"name": "Identity", "op": "Identity", "input": ["StatefulPartitionedCall/model_1/SegHead_main/Softmax"], "attr": {"T": {"type": "DT_FLOAT"}}}], "library": {}, "versions": {"producer": 1205}}, "weightsManifest": [{"paths": ["group1-shard1of3.bin", "group1-shard2of3.bin", "group1-shard3of3.bin"], "weights": [{"name": "StatefulPartitionedCall/model_1/conv2d_49/Conv2D/ReadVariableOp", "shape": [1, 1, 24, 24], "dtype": "float32"}, {"name": "StatefulPartitionedCall/model_1/tf.__operators__.getitem_7/strided_slice/stack", "shape": [4], "dtype": "int32"}, {"name": "StatefulPartitionedCall/model_1/tf.__operators__.getitem_7/strided_slice/stack_1", "shape": [4], "dtype": "int32"}, {"name": "StatefulPartitionedCall/model_1/tf.__operators__.getitem_7/strided_slice/stack_2", "shape": [4], "dtype": "int32"}, {"name": "StatefulPartitionedCall/model_1/reshape/Reshape/shape", "shape": [4], "dtype": "int32"}, {"name": "StatefulPartitionedCall/model_1/concatanate/concat/axis", "shape": [], "dtype": "int32"}, {"name": "StatefulPartitionedCall/model_1/conv2d_47/Conv2D/ReadVariableOp", "shape": [1, 1, 24, 24], "dtype": "float32"}, {"name": "StatefulPartitionedCall/model_1/conv2d_48/Conv2D/ReadVariableOp", "shape": [1, 1, 24, 24], "dtype": "float32"}, {"name": "StatefulPartitionedCall/model_1/tf.__operators__.getitem_6/strided_slice/stack", "shape": [4], "dtype": "int32"}, {"name": "StatefulPartitionedCall/model_1/tf.__operators__.getitem_6/strided_slice/stack_1", "shape": [4], "dtype": "int32"}, {"name": "StatefulPartitionedCall/model_1/tf.__operators__.getitem_6/strided_slice/stack_2", "shape": [4], "dtype": "int32"}, {"name": "StatefulPartitionedCall/model_1/reshape_1/Reshape/shape", "shape": [4], "dtype": "int32"}, {"name": "StatefulPartitionedCall/model_1/up_sampling2d/mul", "shape": [2], "dtype": "int32"}, {"name": "unknown_182", "shape": [], "dtype": "float32"}, {"name": "unknown_137", "shape": [3, 3, 1, 1], "dtype": "float32"}, {"name": "unknown_130", "shape": [], "dtype": "float32"}, {"name": "StatefulPartitionedCall/model_1/tf.__operators__.getitem/strided_slice/stack", "shape": [4], "dtype": "int32"}, {"name": "StatefulPartitionedCall/model_1/tf.__operators__.getitem/strided_slice/stack_1", "shape": [4], "dtype": "int32"}, {"name": "StatefulPartitionedCall/model_1/tf.__operators__.getitem/strided_slice/stack_2", "shape": [4], "dtype": "int32"}, {"name": "unknown_131", "shape": [], "dtype": "float32"}, {"name": "StatefulPartitionedCall/model_1/tf.__operators__.getitem_1/strided_slice/stack", "shape": [4], "dtype": "int32"}, {"name": "StatefulPartitionedCall/model_1/tf.__operators__.getitem_1/strided_slice/stack_1", "shape": [4], "dtype": "int32"}, {"name": "StatefulPartitionedCall/model_1/tf.__operators__.getitem_1/strided_slice/stack_2", "shape": [4], "dtype": "int32"}, {"name": "unknown_133", "shape": [], "dtype": "float32"}, {"name": "StatefulPartitionedCall/model_1/resizing/resize/size", "shape": [2], "dtype": "int32"}, {"name": "StatefulPartitionedCall/model_1/tf.__operators__.getitem_2/strided_slice/stack", "shape": [4], "dtype": "int32"}, {"name": "StatefulPartitionedCall/model_1/tf.__operators__.getitem_2/strided_slice/stack_1", "shape": [4], "dtype": "int32"}, {"name": "StatefulPartitionedCall/model_1/tf.__operators__.getitem_2/strided_slice/stack_2", "shape": [4], "dtype": "int32"}, {"name": "unknown_136", "shape": [3, 3, 1, 1], "dtype": "float32"}, {"name": "StatefulPartitionedCall/model_1/tf.math.truediv/truediv", "shape": [], "dtype": "float32"}, {"name": "StatefulPartitionedCall/model_1/tf.math.greater/Greater/y", "shape": [], "dtype": "float32"}, {"name": "StatefulPartitionedCall/model_1/tf.concat/concat/axis", "shape": [], "dtype": "int32"}, {"name": "StatefulPartitionedCall/model_1/concatenate_6/concat/axis", "shape": [], "dtype": "int32"}, {"name": "StatefulPartitionedCall/model_1/conv2d_37/Conv2D/ReadVariableOp", "shape": [3, 3, 4, 2], "dtype": "float32"}, {"name": "StatefulPartitionedCall/model_1/conv2d_37/BiasAdd/ReadVariableOp", "shape": [2], "dtype": "float32"}, {"name": "StatefulPartitionedCall/model_1/conv2d_38/Conv2D/ReadVariableOp", "shape": [3, 3, 2, 2], "dtype": "float32"}, {"name": "StatefulPartitionedCall/model_1/conv2d_38/BiasAdd/ReadVariableOp", "shape": [2], "dtype": "float32"}, {"name": "StatefulPartitionedCall/model_1/conv2d_39/Conv2D/ReadVariableOp", "shape": [3, 3, 2, 2], "dtype": "float32"}, {"name": "StatefulPartitionedCall/model_1/conv2d_39/BiasAdd/ReadVariableOp", "shape": [2], "dtype": "float32"}, {"name": "StatefulPartitionedCall/model_1/resizing_2/resize/size", "shape": [2], "dtype": "int32"}, {"name": "unknown_144", "shape": [], "dtype": "float32"}, {"name": "unknown_105", "shape": [3, 3, 1, 1], "dtype": "float32"}, {"name": "unknown_95", "shape": [], "dtype": "float32"}, {"name": "StatefulPartitionedCall/model_1/tf.__operators__.getitem_3/strided_slice/stack", "shape": [4], "dtype": "int32"}, {"name": "StatefulPartitionedCall/model_1/tf.__operators__.getitem_3/strided_slice/stack_1", "shape": [4], "dtype": "int32"}, {"name": "StatefulPartitionedCall/model_1/tf.__operators__.getitem_3/strided_slice/stack_2", "shape": [4], "dtype": "int32"}, {"name": "unknown_96", "shape": [], "dtype": "float32"}, {"name": "StatefulPartitionedCall/model_1/tf.__operators__.getitem_4/strided_slice/stack", "shape": [4], "dtype": "int32"}, {"name": "StatefulPartitionedCall/model_1/tf.__operators__.getitem_4/strided_slice/stack_1", "shape": [4], "dtype": "int32"}, {"name": "StatefulPartitionedCall/model_1/tf.__operators__.getitem_4/strided_slice/stack_2", "shape": [4], "dtype": "int32"}, {"name": "unknown_99", "shape": [], "dtype": "float32"}, {"name": "StatefulPartitionedCall/model_1/resizing_1/resize/size", "shape": [2], "dtype": "int32"}, {"name": "StatefulPartitionedCall/model_1/tf.__operators__.getitem_5/strided_slice/stack", "shape": [4], "dtype": "int32"}, {"name": "StatefulPartitionedCall/model_1/tf.__operators__.getitem_5/strided_slice/stack_1", "shape": [4], "dtype": "int32"}, {"name": "StatefulPartitionedCall/model_1/tf.__operators__.getitem_5/strided_slice/stack_2", "shape": [4], "dtype": "int32"}, {"name": "unknown_104", "shape": [3, 3, 1, 1], "dtype": "float32"}, {"name": "StatefulPartitionedCall/model_1/tf.math.truediv_1/truediv", "shape": [], "dtype": "float32"}, {"name": "StatefulPartitionedCall/model_1/tf.math.greater_1/Greater/y", "shape": [], "dtype": "float32"}, {"name": "StatefulPartitionedCall/model_1/tf.concat_1/concat/axis", "shape": [], "dtype": "int32"}, {"name": "StatefulPartitionedCall/model_1/conv2d_33/Conv2D/ReadVariableOp", "shape": [3, 3, 2, 2], "dtype": "float32"}, {"name": "StatefulPartitionedCall/model_1/conv2d_33/BiasAdd/ReadVariableOp", "shape": [2], "dtype": "float32"}, {"name": "StatefulPartitionedCall/model_1/conv2d_34/Conv2D/ReadVariableOp", "shape": [3, 3, 2, 2], "dtype": "float32"}, {"name": "StatefulPartitionedCall/model_1/conv2d_34/BiasAdd/ReadVariableOp", "shape": [2], "dtype": "float32"}, {"name": "StatefulPartitionedCall/model_1/conv2d_35/Conv2D/ReadVariableOp", "shape": [3, 3, 2, 2], "dtype": "float32"}, {"name": "StatefulPartitionedCall/model_1/conv2d_35/BiasAdd/ReadVariableOp", "shape": [2], "dtype": "float32"}, {"name": "StatefulPartitionedCall/model_1/conv2d_36/Conv2D/ReadVariableOp", "shape": [3, 3, 2, 2], "dtype": "float32"}, {"name": "StatefulPartitionedCall/model_1/conv2d_36/BiasAdd/ReadVariableOp", "shape": [2], "dtype": "float32"}, {"name": "StatefulPartitionedCall/model_1/concatenate_8/concat/axis", "shape": [], "dtype": "int32"}, {"name": "StatefulPartitionedCall/model_1/up_sampling2d_1/mul", "shape": [2], "dtype": "int32"}, {"name": "StatefulPartitionedCall/model_1/concatenate/concat/axis", "shape": [], "dtype": "int32"}, {"name": "StatefulPartitionedCall/model_1/concatenate_1/concat/axis", "shape": [], "dtype": "int32"}, {"name": "StatefulPartitionedCall/model_1/concatenate_2/concat/axis", "shape": [], "dtype": "int32"}, {"name": "StatefulPartitionedCall/model_1/concatenate_3/concat/axis", "shape": [], "dtype": "int32"}, {"name": "StatefulPartitionedCall/model_1/concatenate_4/concat/axis", "shape": [], "dtype": "int32"}, {"name": "StatefulPartitionedCall/model_1/concatenate_5/concat/axis", "shape": [], "dtype": "int32"}, {"name": "StatefulPartitionedCall/model_1/up_sampling2d_2/mul", "shape": [2], "dtype": "int32"}, {"name": "StatefulPartitionedCall/model_1/concatenate_10/concat/axis", "shape": [], "dtype": "int32"}, {"name": "StatefulPartitionedCall/model_1/up_sampling2d_3/mul", "shape": [2], "dtype": "int32"}, {"name": "StatefulPartitionedCall/model_1/conv2d_26/Conv2D_bn_offset", "shape": [192], "dtype": "float32"}, {"name": "StatefulPartitionedCall/model_1/conv2d_28/Conv2D_weights", "shape": [3, 3, 192, 48], "dtype": "float32"}, {"name": "StatefulPartitionedCall/model_1/conv2d_28/Conv2D_bn_offset", "shape": [48], "dtype": "float32"}, {"name": "StatefulPartitionedCall/model_1/conv2d/Conv2D_weights", "shape": [7, 7, 3, 24], "dtype": "float32"}, {"name": "StatefulPartitionedCall/model_1/conv2d/Conv2D_bn_offset", "shape": [24], "dtype": "float32"}, {"name": "StatefulPartitionedCall/model_1/conv2d_29/Conv2D_weights", "shape": [3, 3, 192, 24], "dtype": "float32"}, {"name": "StatefulPartitionedCall/model_1/conv2d_1/Conv2D_weights", "shape": [3, 3, 24, 48], "dtype": "float32"}, {"name": "StatefulPartitionedCall/model_1/conv2d_1/Conv2D_bn_offset", "shape": [48], "dtype": "float32"}, {"name": "StatefulPartitionedCall/model_1/conv2d_29/Conv2D_bn_offset", "shape": [24], "dtype": "float32"}, {"name": "StatefulPartitionedCall/model_1/conv2d_3/Conv2D_weights", "shape": [3, 3, 48, 24], "dtype": "float32"}, {"name": "StatefulPartitionedCall/model_1/conv2d_3/Conv2D_bn_offset", "shape": [24], "dtype": "float32"}, {"name": "StatefulPartitionedCall/model_1/conv2d_4/Conv2D_weights", "shape": [3, 3, 48, 12], "dtype": "float32"}, {"name": "StatefulPartitionedCall/model_1/conv2d_30/Conv2D_weights", "shape": [3, 3, 192, 24], "dtype": "float32"}, {"name": "StatefulPartitionedCall/model_1/conv2d_4/Conv2D_bn_offset", "shape": [12], "dtype": "float32"}, {"name": "StatefulPartitionedCall/model_1/conv2d_5/Conv2D_weights", "shape": [3, 3, 48, 12], "dtype": "float32"}, {"name": "StatefulPartitionedCall/model_1/conv2d_30/Conv2D_bn_offset", "shape": [24], "dtype": "float32"}, {"name": "StatefulPartitionedCall/model_1/conv2d_5/Conv2D_bn_offset", "shape": [12], "dtype": "float32"}, {"name": "StatefulPartitionedCall/model_1/conv2d_2/Conv2D_weights", "shape": [1, 1, 48, 48], "dtype": "float32"}, {"name": "StatefulPartitionedCall/model_1/conv2d_2/Conv2D_bn_offset", "shape": [48], "dtype": "float32"}, {"name": "StatefulPartitionedCall/model_1/conv2d_27/Conv2D_weights", "shape": [1, 1, 192, 96], "dtype": "float32"}, {"name": "StatefulPartitionedCall/model_1/conv2d_6/Conv2D_weights", "shape": [1, 1, 96, 96], "dtype": "float32"}, {"name": "StatefulPartitionedCall/model_1/conv2d_6/Conv2D_bn_offset", "shape": [96], "dtype": "float32"}, {"name": "StatefulPartitionedCall/model_1/conv2d_27/Conv2D_bn_offset", "shape": [96], "dtype": "float32"}, {"name": "StatefulPartitionedCall/model_1/conv2d_8/Conv2D_weights", "shape": [3, 3, 96, 24], "dtype": "float32"}, {"name": "StatefulPartitionedCall/model_1/conv2d_50/Conv2D_weights", "shape": [3, 3, 24, 192], "dtype": "float32"}, {"name": "StatefulPartitionedCall/model_1/conv2d_8/Conv2D_bn_offset", "shape": [24], "dtype": "float32"}, {"name": "StatefulPartitionedCall/model_1/conv2d_9/Conv2D_weights", "shape": [3, 3, 96, 12], "dtype": "float32"}, {"name": "StatefulPartitionedCall/model_1/conv2d_9/Conv2D_bn_offset", "shape": [12], "dtype": "float32"}, {"name": "StatefulPartitionedCall/model_1/conv2d_10/Conv2D_weights", "shape": [3, 3, 96, 12], "dtype": "float32"}, {"name": "StatefulPartitionedCall/model_1/conv2d_31/Conv2D_weights", "shape": [1, 1, 192, 192], "dtype": "float32"}, {"name": "StatefulPartitionedCall/model_1/conv2d_10/Conv2D_bn_offset", "shape": [12], "dtype": "float32"}, {"name": "StatefulPartitionedCall/model_1/conv2d_7/Conv2D_weights", "shape": [1, 1, 96, 48], "dtype": "float32"}, {"name": "StatefulPartitionedCall/model_1/conv2d_31/Conv2D_bn_offset", "shape": [192], "dtype": "float32"}, {"name": "StatefulPartitionedCall/model_1/conv2d_7/Conv2D_bn_offset", "shape": [48], "dtype": "float32"}, {"name": "StatefulPartitionedCall/model_1/conv2d_50/Conv2D_bn_offset", "shape": [192], "dtype": "float32"}, {"name": "StatefulPartitionedCall/model_1/conv2d_11/Conv2D_weights", "shape": [1, 1, 96, 96], "dtype": "float32"}, {"name": "StatefulPartitionedCall/model_1/conv2d_11/Conv2D_bn_offset", "shape": [96], "dtype": "float32"}, {"name": "StatefulPartitionedCall/model_1/conv2d_43/Conv2D_weights", "shape": [3, 3, 192, 384], "dtype": "float32"}, {"name": "StatefulPartitionedCall/model_1/conv2d_13/Conv2D_weights", "shape": [3, 3, 96, 48], "dtype": "float32"}, {"name": "StatefulPartitionedCall/model_1/conv2d_13/Conv2D_bn_offset", "shape": [48], "dtype": "float32"}, {"name": "StatefulPartitionedCall/model_1/conv2d_43/Conv2D_bn_offset", "shape": [384], "dtype": "float32"}, {"name": "StatefulPartitionedCall/model_1/conv2d_14/Conv2D_weights", "shape": [3, 3, 96, 24], "dtype": "float32"}, {"name": "StatefulPartitionedCall/model_1/conv2d_14/Conv2D_bn_offset", "shape": [24], "dtype": "float32"}, {"name": "StatefulPartitionedCall/model_1/conv2d_15/Conv2D_weights", "shape": [3, 3, 96, 24], "dtype": "float32"}, {"name": "StatefulPartitionedCall/model_1/conv2d_15/Conv2D_bn_offset", "shape": [24], "dtype": "float32"}, {"name": "StatefulPartitionedCall/model_1/conv2d_12/Conv2D_weights", "shape": [1, 1, 96, 96], "dtype": "float32"}, {"name": "StatefulPartitionedCall/model_1/conv2d_44/Conv2D_weights", "shape": [1, 1, 384, 384], "dtype": "float32"}, {"name": "StatefulPartitionedCall/model_1/conv2d_12/Conv2D_bn_offset", "shape": [96], "dtype": "float32"}, {"name": "StatefulPartitionedCall/model_1/conv2d_51/Conv2D_weights", "shape": [1, 1, 192, 2], "dtype": "float32"}, {"name": "StatefulPartitionedCall/model_1/conv2d_16/Conv2D_weights", "shape": [1, 1, 192, 192], "dtype": "float32"}, {"name": "StatefulPartitionedCall/model_1/conv2d_44/Conv2D_bn_offset", "shape": [384], "dtype": "float32"}, {"name": "StatefulPartitionedCall/model_1/conv2d_16/Conv2D_bn_offset", "shape": [192], "dtype": "float32"}, {"name": "StatefulPartitionedCall/model_1/conv2d_18/Conv2D_weights", "shape": [3, 3, 192, 48], "dtype": "float32"}, {"name": "StatefulPartitionedCall/model_1/conv2d_18/Conv2D_bn_offset", "shape": [48], "dtype": "float32"}, {"name": "StatefulPartitionedCall/model_1/conv2d_19/Conv2D_weights", "shape": [3, 3, 192, 24], "dtype": "float32"}, {"name": "StatefulPartitionedCall/model_1/conv2d_45/Conv2D_weights", "shape": [1, 1, 384, 384], "dtype": "float32"}, {"name": "StatefulPartitionedCall/model_1/conv2d_19/Conv2D_bn_offset", "shape": [24], "dtype": "float32"}, {"name": "StatefulPartitionedCall/model_1/conv2d_20/Conv2D_weights", "shape": [3, 3, 192, 24], "dtype": "float32"}, {"name": "StatefulPartitionedCall/model_1/conv2d_45/Conv2D_bn_offset", "shape": [384], "dtype": "float32"}, {"name": "StatefulPartitionedCall/model_1/conv2d_20/Conv2D_bn_offset", "shape": [24], "dtype": "float32"}, {"name": "StatefulPartitionedCall/model_1/conv2d_17/Conv2D_weights", "shape": [1, 1, 192, 96], "dtype": "float32"}, {"name": "StatefulPartitionedCall/model_1/conv2d_17/Conv2D_bn_offset", "shape": [96], "dtype": "float32"}, {"name": "StatefulPartitionedCall/model_1/conv2d_21/Conv2D_weights", "shape": [1, 1, 192, 192], "dtype": "float32"}, {"name": "StatefulPartitionedCall/model_1/conv2d_21/Conv2D_bn_offset", "shape": [192], "dtype": "float32"}, {"name": "StatefulPartitionedCall/model_1/conv2d_23/Conv2D_weights", "shape": [3, 3, 192, 48], "dtype": "float32"}, {"name": "StatefulPartitionedCall/model_1/conv2d_46/Conv2D_weights", "shape": [3, 3, 672, 24], "dtype": "float32"}, {"name": "StatefulPartitionedCall/model_1/conv2d_23/Conv2D_bn_offset", "shape": [48], "dtype": "float32"}, {"name": "StatefulPartitionedCall/model_1/conv2d_51/Conv2D_bn_offset", "shape": [2], "dtype": "float32"}, {"name": "StatefulPartitionedCall/model_1/conv2d_24/Conv2D_weights", "shape": [3, 3, 192, 24], "dtype": "float32"}, {"name": "StatefulPartitionedCall/model_1/conv2d_46/Conv2D_bn_offset", "shape": [24], "dtype": "float32"}, {"name": "StatefulPartitionedCall/model_1/conv2d_24/Conv2D_bn_offset", "shape": [24], "dtype": "float32"}, {"name": "StatefulPartitionedCall/model_1/conv2d_25/Conv2D_weights", "shape": [3, 3, 192, 24], "dtype": "float32"}, {"name": "StatefulPartitionedCall/model_1/conv2d_25/Conv2D_bn_offset", "shape": [24], "dtype": "float32"}, {"name": "StatefulPartitionedCall/model_1/conv2d_22/Conv2D_weights", "shape": [1, 1, 192, 96], "dtype": "float32"}, {"name": "StatefulPartitionedCall/model_1/conv2d_22/Conv2D_bn_offset", "shape": [96], "dtype": "float32"}, {"name": "StatefulPartitionedCall/model_1/conv2d_40/Conv2D_weights", "shape": [3, 3, 196, 192], "dtype": "float32"}, {"name": "StatefulPartitionedCall/model_1/conv2d_40/Conv2D_bn_offset", "shape": [192], "dtype": "float32"}, {"name": "StatefulPartitionedCall/model_1/conv2d_41/Conv2D_weights", "shape": [1, 1, 192, 192], "dtype": "float32"}, {"name": "StatefulPartitionedCall/model_1/conv2d_41/Conv2D_bn_offset", "shape": [192], "dtype": "float32"}, {"name": "StatefulPartitionedCall/model_1/conv2d_42/Conv2D_weights", "shape": [1, 1, 192, 192], "dtype": "float32"}, {"name": "StatefulPartitionedCall/model_1/conv2d_42/Conv2D_bn_offset", "shape": [192], "dtype": "float32"}, {"name": "StatefulPartitionedCall/model_1/conv2d_26/Conv2D_weights", "shape": [1, 1, 192, 192], "dtype": "float32"}]}]}